…
I0428 17:38:40.094743  7412 net.cpp:294] The NetState phase (0) differed from the phase (1) specified by a rule in layer accuracy
I0428 17:38:40.095742  7412 net.cpp:51] Initializing net from parameters: 
name: "CaffeNet"
state {
  phase: TRAIN
  level: 0
  stage: ""
}
layer {
  name: "data"
  type: "Data"
  top: "data"
  top: "label"
  include {
    phase: TRAIN
  }
  transform_param {
    mirror: true
    crop_size: 32
    mean_value: 104
    mean_value: 117
    mean_value: 123
  }
  data_param {
    source: "D:/_test/train/img_train_lmdb"
    batch_size: 100
    backend: LMDB
  }
}
layer {
  name: "conv1"
  type: "Convolution"
  bottom: "data"
  top: "conv1"
  param {
    lr_mult: 1
    decay_mult: 1
  }
  param {
    lr_mult: 2
    decay_mult: 0
  }
  convolution_param {
    num_output: 16
    pad: 1
    kernel_size: 3
    stride: 1
    weight_filler {
      type: "xavier"
      variance_norm: FAN_IN
    }
    bias_filler {
      type: "constant"
      value: 0
    }
  }
}
layer {
  name: "bn_conv1"
  type: "BatchNorm"
  bottom: "conv1"
  top: "conv1"
  batch_norm_param {
    use_global_stats: false
  }
}
layer {
  name: "scale_conv1"
  type: "Scale"
  bottom: "conv1"
  top: "conv1"
  scale_param {
    bias_term: true
  }
}
layer {
  name: "relu1"
  type: "ReLU"
  bottom: "conv1"
  top: "conv1"
}
layer {
  name: "conv2"
  type: "Convolution"
  bottom: "conv1"
  top: "conv2"
  param {
    lr_mult: 1
    decay_mult: 1
  }
  param {
    lr_mult: 2
    decay_mult: 0
  }
  convolution_param {
    num_output: 16
    pad: 1
    kernel_size: 3
    stride: 1
    weight_filler {
      type: "xavier"
      variance_norm: FAN_IN
    }
    bias_filler {
      type: "constant"
      value: 1
    }
  }
}
layer {
  name: "bn_conv2"
  type: "BatchNorm"
  bottom: "conv2"
  top: "conv2"
  batch_norm_param {
    use_global_stats: false
  }
}
layer {
  name: "scale_conv2"
  type: "Scale"
  bottom: "conv2"
  top: "conv2"
  scale_param {
    bias_term: true
  }
}
layer {
  name: "relu2"
  type: "ReLU"
  bottom: "conv2"
  top: "conv2"
}
layer {
  name: "conv3"
  type: "Convolution"
  bottom: "conv2"
  top: "conv3"
  param {
    lr_mult: 1
    decay_mult: 1
  }
  param {
    lr_mult: 2
    decay_mult: 0
  }
  convolution_param {
    num_output: 16
    pad: 1
    kernel_size: 3
    stride: 1
    weight_filler {
      type: "xavier"
      variance_norm: FAN_IN
    }
    bias_filler {
      type: "constant"
      value: 0
    }
  }
}
layer {
  name: "bn_conv3"
  type: "BatchNorm"
  bottom: "conv3"
  top: "conv3"
  batch_norm_param {
    use_global_stats: false
  }
}
layer {
  name: "scale_conv3"
  type: "Scale"
  bottom: "conv3"
  top: "conv3"
  scale_param {
    bias_term: true
  }
}
layer {
  name: "relu3"
  type: "ReLU"
  bottom: "conv3"
  top: "conv3"
}
layer {
  name: "conv4"
  type: "Convolution"
  bottom: "conv3"
  top: "conv4"
  param {
    lr_mult: 1
    decay_mult: 1
  }
  param {
    lr_mult: 2
    decay_mult: 0
  }
  convolution_param {
    num_output: 16
    pad: 1
    kernel_size: 3
    stride: 1
    weight_filler {
      type: "xavier"
      variance_norm: FAN_IN
    }
    bias_filler {
      type: "constant"
      value: 1
    }
  }
}
layer {
  name: "bn_conv4"
  type: "BatchNorm"
  bottom: "conv4"
  top: "conv4"
  batch_norm_param {
    use_global_stats: false
  }
}
layer {
  name: "scale_conv4"
  type: "Scale"
  bottom: "conv4"
  top: "conv4"
  scale_param {
    bias_term: true
  }
}
layer {
  name: "relu4"
  type: "ReLU"
  bottom: "conv4"
  top: "conv4"
}
layer {
  name: "conv5"
  type: "Convolution"
  bottom: "conv4"
  top: "conv5"
  param {
    lr_mult: 1
    decay_mult: 1
  }
  param {
    lr_mult: 2
    decay_mult: 0
  }
  convolution_param {
    num_output: 16
    pad: 1
    kernel_size: 3
    stride: 2
    weight_filler {
      type: "xavier"
      variance_norm: FAN_IN
    }
    bias_filler {
      type: "constant"
      value: 1
    }
  }
}
layer {
  name: "bn_conv5"
  type: "BatchNorm"
  bottom: "conv5"
  top: "conv5"
  batch_norm_param {
    use_global_stats: false
  }
}
layer {
  name: "scale_conv5"
  type: "Scale"
  bottom: "conv5"
  top: "conv5"
  scale_param {
    bias_term: true
  }
}
layer {
  name: "relu5"
  type: "ReLU"
  bottom: "conv5"
  top: "conv5"
}
layer {
  name: "conv6"
  type: "Convolution"
  bottom: "conv5"
  top: "conv6"
  param {
    lr_mult: 1
    decay_mult: 1
  }
  param {
    lr_mult: 2
    decay_mult: 0
  }
  convolution_param {
    num_output: 32
    pad: 1
    kernel_size: 3
    stride: 1
    weight_filler {
      type: "xavier"
      variance_norm: FAN_IN
    }
    bias_filler {
      type: "constant"
      value: 1
    }
  }
}
layer {
  name: "bn_conv6"
  type: "BatchNorm"
  bottom: "conv6"
  top: "conv6"
  batch_norm_param {
    use_global_stats: false
  }
}
layer {
  name: "scale_conv6"
  type: "Scale"
  bottom: "conv6"
  top: "conv6"
  scale_param {
    bias_term: true
  }
}
layer {
  name: "relu6"
  type: "ReLU"
  bottom: "conv6"
  top: "conv6"
}
layer {
  name: "conv7"
  type: "Convolution"
  bottom: "conv6"
  top: "conv7"
  param {
    lr_mult: 1
    decay_mult: 1
  }
  param {
    lr_mult: 2
    decay_mult: 0
  }
  convolution_param {
    num_output: 32
    pad: 1
    kernel_size: 3
    stride: 1
    weight_filler {
      type: "xavier"
      variance_norm: FAN_IN
    }
    bias_filler {
      type: "constant"
      value: 1
    }
  }
}
layer {
  name: "bn_conv7"
  type: "BatchNorm"
  bottom: "conv7"
  top: "conv7"
  batch_norm_param {
    use_global_stats: false
  }
}
layer {
  name: "scale_conv7"
  type: "Scale"
  bottom: "conv7"
  top: "conv7"
  scale_param {
    bias_term: true
  }
}
layer {
  name: "relu7"
  type: "ReLU"
  bottom: "conv7"
  top: "conv7"
}
layer {
  name: "conv8"
  type: "Convolution"
  bottom: "conv7"
  top: "conv8"
  param {
    lr_mult: 1
    decay_mult: 1
  }
  param {
    lr_mult: 2
    decay_mult: 0
  }
  convolution_param {
    num_output: 32
    pad: 1
    kernel_size: 3
    stride: 1
    weight_filler {
      type: "xavier"
      variance_norm: FAN_IN
    }
    bias_filler {
      type: "constant"
      value: 1
    }
  }
}
layer {
  name: "bn_conv8"
  type: "BatchNorm"
  bottom: "conv8"
  top: "conv8"
  batch_norm_param {
    use_global_stats: false
  }
}
layer {
  name: "scale_conv8"
  type: "Scale"
  bottom: "conv8"
  top: "conv8"
  scale_param {
    bias_term: true
  }
}
layer {
  name: "relu8"
  type: "ReLU"
  bottom: "conv8"
  top: "conv8"
}
layer {
  name: "conv9"
  type: "Convolution"
  bottom: "conv8"
  top: "conv9"
  param {
    lr_mult: 1
    decay_mult: 1
  }
  param {
    lr_mult: 2
    decay_mult: 0
  }
  convolution_param {
    num_output: 32
    pad: 1
    kernel_size: 3
    stride: 1
    weight_filler {
      type: "xavier"
      variance_norm: FAN_IN
    }
    bias_filler {
      type: "constant"
      value: 1
    }
  }
}
layer {
  name: "bn_conv9"
  type: "BatchNorm"
  bottom: "conv9"
  top: "conv9"
  batch_norm_param {
    use_global_stats: false
  }
}
layer {
  name: "scale_conv9"
  type: "Scale"
  bottom: "conv9"
  top: "conv9"
  scale_param {
    bias_term: true
  }
}
layer {
  name: "relu9"
  type: "ReLU"
  bottom: "conv9"
  top: "conv9"
}
layer {
  name: "conv10"
  type: "Convolution"
  bottom: "conv9"
  top: "conv10"
  param {
    lr_mult: 1
    decay_mult: 1
  }
  param {
    lr_mult: 2
    decay_mult: 0
  }
  convolution_param {
    num_output: 32
    pad: 1
    kernel_size: 3
    stride: 2
    weight_filler {
      type: "xavier"
      variance_norm: FAN_IN
    }
    bias_filler {
      type: "constant"
      value: 1
    }
  }
}
layer {
  name: "bn_conv10"
  type: "BatchNorm"
  bottom: "conv10"
  top: "conv10"
  batch_norm_param {
    use_global_stats: false
  }
}
layer {
  name: "scale_conv10"
  type: "Scale"
  bottom: "conv10"
  top: "conv10"
  scale_param {
    bias_term: true
  }
}
layer {
  name: "relu10"
  type: "ReLU"
  bottom: "conv10"
  top: "conv10"
}
layer {
  name: "conv11"
  type: "Convolution"
  bottom: "conv10"
  top: "conv11"
  param {
    lr_mult: 1
    decay_mult: 1
  }
  param {
    lr_mult: 2
    decay_mult: 0
  }
  convolution_param {
    num_output: 32
    pad: 1
    kernel_size: 3
    stride: 1
    weight_filler {
      type: "xavier"
      variance_norm: FAN_IN
    }
    bias_filler {
      type: "constant"
      value: 1
    }
  }
}
layer {
  name: "bn_conv11"
  type: "BatchNorm"
  bottom: "conv11"
  top: "conv11"
  batch_norm_param {
    use_global_stats: false
  }
}
layer {
  name: "scale_conv11"
  type: "Scale"
  bottom: "conv11"
  top: "conv11"
  scale_param {
    bias_term: true
  }
}
layer {
  name: "relu11"
  type: "ReLU"
  bottom: "conv11"
  top: "conv11"
}
layer {
  name: "conv12"
  type: "Convolution"
  bottom: "conv11"
  top: "conv12"
  param {
    lr_mult: 1
    decay_mult: 1
  }
  param {
    lr_mult: 2
    decay_mult: 0
  }
  convolution_param {
    num_output: 32
    pad: 1
    kernel_size: 3
    stride: 1
    weight_filler {
      type: "xavier"
      variance_norm: FAN_IN
    }
    bias_filler {
      type: "constant"
      value: 1
    }
  }
}
layer {
  name: "bn_conv12"
  type: "BatchNorm"
  bottom: "conv12"
  top: "conv12"
  batch_norm_param {
    use_global_stats: false
  }
}
layer {
  name: "scale_conv12"
  type: "Scale"
  bottom: "conv12"
  top: "conv12"
  scale_param {
    bias_term: true
  }
}
layer {
  name: "relu12"
  type: "ReLU"
  bottom: "conv12"
  top: "conv12"
}
layer {
  name: "conv13"
  type: "Convolution"
  bottom: "conv12"
  top: "conv13"
  param {
    lr_mult: 1
    decay_mult: 1
  }
  param {
    lr_mult: 2
    decay_mult: 0
  }
  convolution_param {
    num_output: 32
    pad: 1
    kernel_size: 3
    stride: 1
    weight_filler {
      type: "xavier"
      variance_norm: FAN_IN
    }
    bias_filler {
      type: "constant"
      value: 1
    }
  }
}
layer {
  name: "bn_conv13"
  type: "BatchNorm"
  bottom: "conv13"
  top: "conv13"
  batch_norm_param {
    use_global_stats: false
  }
}
layer {
  name: "scale_conv13"
  type: "Scale"
  bottom: "conv13"
  top: "conv13"
  scale_param {
    bias_term: true
  }
}
layer {
  name: "relu13"
  type: "ReLU"
  bottom: "conv13"
  top: "conv13"
}
layer {
  name: "conv14"
  type: "Convolution"
  bottom: "conv13"
  top: "conv14"
  param {
    lr_mult: 1
    decay_mult: 1
  }
  param {
    lr_mult: 2
    decay_mult: 0
  }
  convolution_param {
    num_output: 32
    pad: 1
    kernel_size: 3
    stride: 1
    weight_filler {
      type: "xavier"
      variance_norm: FAN_IN
    }
    bias_filler {
      type: "constant"
      value: 1
    }
  }
}
layer {
  name: "bn_conv14"
  type: "BatchNorm"
  bottom: "conv14"
  top: "conv14"
  batch_norm_param {
    use_global_stats: false
  }
}
layer {
  name: "scale_conv14"
  type: "Scale"
  bottom: "conv14"
  top: "conv14"
  scale_param {
    bias_term: true
  }
}
layer {
  name: "relu14"
  type: "ReLU"
  bottom: "conv14"
  top: "conv14"
}
layer {
  name: "conv15"
  type: "Convolution"
  bottom: "conv14"
  top: "conv15"
  param {
    lr_mult: 1
    decay_mult: 1
  }
  param {
    lr_mult: 2
    decay_mult: 0
  }
  convolution_param {
    num_output: 32
    pad: 1
    kernel_size: 3
    stride: 2
    weight_filler {
      type: "xavier"
      variance_norm: FAN_IN
    }
    bias_filler {
      type: "constant"
      value: 1
    }
  }
}
layer {
  name: "bn_conv15"
  type: "BatchNorm"
  bottom: "conv15"
  top: "conv15"
  batch_norm_param {
    use_global_stats: false
  }
}
layer {
  name: "scale_conv15"
  type: "Scale"
  bottom: "conv15"
  top: "conv15"
  scale_param {
    bias_term: true
  }
}
layer {
  name: "relu15"
  type: "ReLU"
  bottom: "conv15"
  top: "conv15"
}
layer {
  name: "conv16"
  type: "Convolution"
  bottom: "conv15"
  top: "conv16"
  param {
    lr_mult: 1
    decay_mult: 1
  }
  param {
    lr_mult: 2
    decay_mult: 0
  }
  convolution_param {
    num_output: 32
    pad: 1
    kernel_size: 3
    stride: 1
    weight_filler {
      type: "xavier"
      variance_norm: FAN_IN
    }
    bias_filler {
      type: "constant"
      value: 1
    }
  }
}
layer {
  name: "bn_conv16"
  type: "BatchNorm"
  bottom: "conv16"
  top: "conv16"
  batch_norm_param {
    use_global_stats: false
  }
}
layer {
  name: "scale_conv16"
  type: "Scale"
  bottom: "conv16"
  top: "conv16"
  scale_param {
    bias_term: true
  }
}
layer {
  name: "relu16"
  type: "ReLU"
  bottom: "conv16"
  top: "conv16"
}
layer {
  name: "conv17"
  type: "Convolution"
  bottom: "conv16"
  top: "conv17"
  param {
    lr_mult: 1
    decay_mult: 1
  }
  param {
    lr_mult: 2
    decay_mult: 0
  }
  convolution_param {
    num_output: 32
    pad: 1
    kernel_size: 3
    stride: 1
    weight_filler {
      type: "xavier"
      variance_norm: FAN_IN
    }
    bias_filler {
      type: "constant"
      value: 1
    }
  }
}
layer {
  name: "bn_conv17"
  type: "BatchNorm"
  bottom: "conv17"
  top: "conv17"
  batch_norm_param {
    use_global_stats: false
  }
}
layer {
  name: "scale_conv17"
  type: "Scale"
  bottom: "conv17"
  top: "conv17"
  scale_param {
    bias_term: true
  }
}
layer {
  name: "relu17"
  type: "ReLU"
  bottom: "conv17"
  top: "conv17"
}
layer {
  name: "conv18"
  type: "Convolution"
  bottom: "conv17"
  top: "conv18"
  param {
    lr_mult: 1
    decay_mult: 1
  }
  param {
    lr_mult: 2
    decay_mult: 0
  }
  convolution_param {
    num_output: 32
    pad: 1
    kernel_size: 3
    stride: 1
    weight_filler {
      type: "xavier"
      variance_norm: FAN_IN
    }
    bias_filler {
      type: "constant"
      value: 1
    }
  }
}
layer {
  name: "bn_conv17"
  type: "BatchNorm"
  bottom: "conv18"
  top: "conv18"
  batch_norm_param {
    use_global_stats: false
  }
}
layer {
  name: "scale_conv18"
  type: "Scale"
  bottom: "conv18"
  top: "conv18"
  scale_param {
    bias_term: true
  }
}
layer {
  name: "relu18"
  type: "ReLU"
  bottom: "conv18"
  top: "conv18"
}
layer {
  name: "conv19"
  type: "Convolution"
  bottom: "conv18"
  top: "conv19"
  param {
    lr_mult: 1
    decay_mult: 1
  }
  param {
    lr_mult: 2
    decay_mult: 0
  }
  convolution_param {
    num_output: 32
    pad: 1
    kernel_size: 3
    stride: 1
    weight_filler {
      type: "xavier"
      variance_norm: FAN_IN
    }
    bias_filler {
      type: "constant"
      value: 1
    }
  }
}
layer {
  name: "bn_conv19"
  type: "BatchNorm"
  bottom: "conv19"
  top: "conv19"
  batch_norm_param {
    use_global_stats: false
  }
}
layer {
  name: "scale_conv19"
  type: "Scale"
  bottom: "conv19"
  top: "conv19"
  scale_param {
    bias_term: true
  }
}
layer {
  name: "relu19"
  type: "ReLU"
  bottom: "conv19"
  top: "conv19"
}
layer {
  name: "conv20"
  type: "Convolution"
  bottom: "conv19"
  top: "conv20"
  param {
    lr_mult: 1
    decay_mult: 1
  }
  param {
    lr_mult: 2
    decay_mult: 0
  }
  convolution_param {
    num_output: 32
    pad: 1
    kernel_size: 3
    stride: 1
    weight_filler {
      type: "xavier"
      variance_norm: FAN_IN
    }
    bias_filler {
      type: "constant"
      value: 1
    }
  }
}
layer {
  name: "bn_conv20"
  type: "BatchNorm"
  bottom: "conv20"
  top: "conv20"
  batch_norm_param {
    use_global_stats: false
  }
}
layer {
  name: "scale_conv20"
  type: "Scale"
  bottom: "conv20"
  top: "conv20"
  scale_param {
    bias_term: true
  }
}
layer {
  name: "relu20"
  type: "ReLU"
  bottom: "conv20"
  top: "conv20"
}
layer {
  name: "pool21"
  type: "Pooling"
  bottom: "conv20"
  top: "pool21"
  pooling_param {
    pool: AVE
    global_pooling: true
  }
}
layer {
  name: "fc22"
  type: "InnerProduct"
  bottom: "pool21"
  top: "fc22"
  param {
    lr_mult: 1
    decay_mult: 1
  }
  param {
    lr_mult: 2
    decay_mult: 0
  }
  inner_product_param {
    num_output: 10
    weight_filler {
      type: "xavier"
      variance_norm: FAN_IN
    }
    bias_filler {
      type: "constant"
      value: 0
    }
  }
}
layer {
  name: "loss"
  type: "SoftmaxWithLoss"
  bottom: "fc22"
  bottom: "label"
  top: "loss"
}
I0428 17:38:40.137744  7412 layer_factory.hpp:77] Creating layer data
I0428 17:38:40.138744  7412 db_lmdb.cpp:40] Opened lmdb D:/_test/train/img_train_lmdb
I0428 17:38:40.138744  7412 net.cpp:84] Creating Layer data
I0428 17:38:40.138744  7412 net.cpp:380] data -> data
I0428 17:38:40.138744  7412 net.cpp:380] data -> label
I0428 17:38:40.139744  7412 data_layer.cpp:45] output data size: 100,3,32,32
I0428 17:38:40.143745  7412 net.cpp:122] Setting up data
I0428 17:38:40.143745  7412 net.cpp:129] Top shape: 100 3 32 32 (307200)
I0428 17:38:40.144745  7412 net.cpp:129] Top shape: 100 (100)
I0428 17:38:40.144745  7412 net.cpp:137] Memory required for data: 1229200
I0428 17:38:40.144745  7412 layer_factory.hpp:77] Creating layer conv1
I0428 17:38:40.144745  7412 net.cpp:84] Creating Layer conv1
I0428 17:38:40.144745  7412 net.cpp:406] conv1 <- data
I0428 17:38:40.144745  7412 net.cpp:380] conv1 -> conv1
I0428 17:38:40.145745  7412 net.cpp:122] Setting up conv1
I0428 17:38:40.145745  7412 net.cpp:129] Top shape: 100 16 32 32 (1638400)
I0428 17:38:40.145745  7412 net.cpp:137] Memory required for data: 7782800
I0428 17:38:40.145745  7412 layer_factory.hpp:77] Creating layer bn_conv1
I0428 17:38:40.146745  7412 net.cpp:84] Creating Layer bn_conv1
I0428 17:38:40.146745  7412 net.cpp:406] bn_conv1 <- conv1
I0428 17:38:40.146745  7412 net.cpp:367] bn_conv1 -> conv1 (in-place)
I0428 17:38:40.146745  7412 net.cpp:122] Setting up bn_conv1
I0428 17:38:40.146745  7412 net.cpp:129] Top shape: 100 16 32 32 (1638400)
I0428 17:38:40.146745  7412 net.cpp:137] Memory required for data: 14336400
I0428 17:38:40.146745  7412 layer_factory.hpp:77] Creating layer scale_conv1
I0428 17:38:40.147745  7412 net.cpp:84] Creating Layer scale_conv1
I0428 17:38:40.147745  7412 net.cpp:406] scale_conv1 <- conv1
I0428 17:38:40.147745  7412 net.cpp:367] scale_conv1 -> conv1 (in-place)
I0428 17:38:40.147745  7412 layer_factory.hpp:77] Creating layer scale_conv1
I0428 17:38:40.147745  7412 net.cpp:122] Setting up scale_conv1
I0428 17:38:40.147745  7412 net.cpp:129] Top shape: 100 16 32 32 (1638400)
I0428 17:38:40.147745  7412 net.cpp:137] Memory required for data: 20890000
I0428 17:38:40.147745  7412 layer_factory.hpp:77] Creating layer relu1
I0428 17:38:40.147745  7412 net.cpp:84] Creating Layer relu1
I0428 17:38:40.147745  7412 net.cpp:406] relu1 <- conv1
I0428 17:38:40.148746  7412 net.cpp:367] relu1 -> conv1 (in-place)
I0428 17:38:40.148746  7412 net.cpp:122] Setting up relu1
I0428 17:38:40.148746  7412 net.cpp:129] Top shape: 100 16 32 32 (1638400)
I0428 17:38:40.148746  7412 net.cpp:137] Memory required for data: 27443600
I0428 17:38:40.148746  7412 layer_factory.hpp:77] Creating layer conv2
I0428 17:38:40.148746  7412 net.cpp:84] Creating Layer conv2
I0428 17:38:40.148746  7412 net.cpp:406] conv2 <- conv1
I0428 17:38:40.148746  7412 net.cpp:380] conv2 -> conv2
I0428 17:38:40.149745  7412 net.cpp:122] Setting up conv2
I0428 17:38:40.149745  7412 net.cpp:129] Top shape: 100 16 32 32 (1638400)
I0428 17:38:40.149745  7412 net.cpp:137] Memory required for data: 33997200
I0428 17:38:40.149745  7412 layer_factory.hpp:77] Creating layer bn_conv2
I0428 17:38:40.149745  7412 net.cpp:84] Creating Layer bn_conv2
I0428 17:38:40.149745  7412 net.cpp:406] bn_conv2 <- conv2
I0428 17:38:40.149745  7412 net.cpp:367] bn_conv2 -> conv2 (in-place)
I0428 17:38:40.149745  7412 net.cpp:122] Setting up bn_conv2
I0428 17:38:40.150745  7412 net.cpp:129] Top shape: 100 16 32 32 (1638400)
I0428 17:38:40.150745  7412 net.cpp:137] Memory required for data: 40550800
I0428 17:38:40.150745  7412 layer_factory.hpp:77] Creating layer scale_conv2
I0428 17:38:40.150745  7412 net.cpp:84] Creating Layer scale_conv2
I0428 17:38:40.150745  7412 net.cpp:406] scale_conv2 <- conv2
I0428 17:38:40.150745  7412 net.cpp:367] scale_conv2 -> conv2 (in-place)
I0428 17:38:40.150745  7412 layer_factory.hpp:77] Creating layer scale_conv2
I0428 17:38:40.150745  7412 net.cpp:122] Setting up scale_conv2
I0428 17:38:40.150745  7412 net.cpp:129] Top shape: 100 16 32 32 (1638400)
I0428 17:38:40.151746  7412 net.cpp:137] Memory required for data: 47104400
I0428 17:38:40.151746  7412 layer_factory.hpp:77] Creating layer relu2
I0428 17:38:40.151746  7412 net.cpp:84] Creating Layer relu2
I0428 17:38:40.151746  7412 net.cpp:406] relu2 <- conv2
I0428 17:38:40.151746  7412 net.cpp:367] relu2 -> conv2 (in-place)
I0428 17:38:40.151746  7412 net.cpp:122] Setting up relu2
I0428 17:38:40.151746  7412 net.cpp:129] Top shape: 100 16 32 32 (1638400)
I0428 17:38:40.151746  7412 net.cpp:137] Memory required for data: 53658000
I0428 17:38:40.151746  7412 layer_factory.hpp:77] Creating layer conv3
I0428 17:38:40.151746  7412 net.cpp:84] Creating Layer conv3
I0428 17:38:40.151746  7412 net.cpp:406] conv3 <- conv2
I0428 17:38:40.152745  7412 net.cpp:380] conv3 -> conv3
I0428 17:38:40.152745  7412 net.cpp:122] Setting up conv3
I0428 17:38:40.152745  7412 net.cpp:129] Top shape: 100 16 32 32 (1638400)
I0428 17:38:40.152745  7412 net.cpp:137] Memory required for data: 60211600
I0428 17:38:40.152745  7412 layer_factory.hpp:77] Creating layer bn_conv3
I0428 17:38:40.152745  7412 net.cpp:84] Creating Layer bn_conv3
I0428 17:38:40.152745  7412 net.cpp:406] bn_conv3 <- conv3
I0428 17:38:40.152745  7412 net.cpp:367] bn_conv3 -> conv3 (in-place)
I0428 17:38:40.153745  7412 net.cpp:122] Setting up bn_conv3
I0428 17:38:40.153745  7412 net.cpp:129] Top shape: 100 16 32 32 (1638400)
I0428 17:38:40.153745  7412 net.cpp:137] Memory required for data: 66765200
I0428 17:38:40.153745  7412 layer_factory.hpp:77] Creating layer scale_conv3
I0428 17:38:40.153745  7412 net.cpp:84] Creating Layer scale_conv3
I0428 17:38:40.153745  7412 net.cpp:406] scale_conv3 <- conv3
I0428 17:38:40.153745  7412 net.cpp:367] scale_conv3 -> conv3 (in-place)
I0428 17:38:40.153745  7412 layer_factory.hpp:77] Creating layer scale_conv3
I0428 17:38:40.153745  7412 net.cpp:122] Setting up scale_conv3
I0428 17:38:40.153745  7412 net.cpp:129] Top shape: 100 16 32 32 (1638400)
I0428 17:38:40.154745  7412 net.cpp:137] Memory required for data: 73318800
I0428 17:38:40.154745  7412 layer_factory.hpp:77] Creating layer relu3
I0428 17:38:40.154745  7412 net.cpp:84] Creating Layer relu3
I0428 17:38:40.154745  7412 net.cpp:406] relu3 <- conv3
I0428 17:38:40.154745  7412 net.cpp:367] relu3 -> conv3 (in-place)
I0428 17:38:40.154745  7412 net.cpp:122] Setting up relu3
I0428 17:38:40.154745  7412 net.cpp:129] Top shape: 100 16 32 32 (1638400)
I0428 17:38:40.154745  7412 net.cpp:137] Memory required for data: 79872400
I0428 17:38:40.154745  7412 layer_factory.hpp:77] Creating layer conv4
I0428 17:38:40.154745  7412 net.cpp:84] Creating Layer conv4
I0428 17:38:40.154745  7412 net.cpp:406] conv4 <- conv3
I0428 17:38:40.155745  7412 net.cpp:380] conv4 -> conv4
I0428 17:38:40.155745  7412 net.cpp:122] Setting up conv4
I0428 17:38:40.155745  7412 net.cpp:129] Top shape: 100 16 32 32 (1638400)
I0428 17:38:40.155745  7412 net.cpp:137] Memory required for data: 86426000
I0428 17:38:40.155745  7412 layer_factory.hpp:77] Creating layer bn_conv4
I0428 17:38:40.155745  7412 net.cpp:84] Creating Layer bn_conv4
I0428 17:38:40.155745  7412 net.cpp:406] bn_conv4 <- conv4
I0428 17:38:40.156745  7412 net.cpp:367] bn_conv4 -> conv4 (in-place)
I0428 17:38:40.156745  7412 net.cpp:122] Setting up bn_conv4
I0428 17:38:40.156745  7412 net.cpp:129] Top shape: 100 16 32 32 (1638400)
I0428 17:38:40.156745  7412 net.cpp:137] Memory required for data: 92979600
I0428 17:38:40.156745  7412 layer_factory.hpp:77] Creating layer scale_conv4
I0428 17:38:40.156745  7412 net.cpp:84] Creating Layer scale_conv4
I0428 17:38:40.156745  7412 net.cpp:406] scale_conv4 <- conv4
I0428 17:38:40.156745  7412 net.cpp:367] scale_conv4 -> conv4 (in-place)
I0428 17:38:40.156745  7412 layer_factory.hpp:77] Creating layer scale_conv4
I0428 17:38:40.157745  7412 net.cpp:122] Setting up scale_conv4
I0428 17:38:40.157745  7412 net.cpp:129] Top shape: 100 16 32 32 (1638400)
I0428 17:38:40.157745  7412 net.cpp:137] Memory required for data: 99533200
I0428 17:38:40.157745  7412 layer_factory.hpp:77] Creating layer relu4
I0428 17:38:40.157745  7412 net.cpp:84] Creating Layer relu4
I0428 17:38:40.157745  7412 net.cpp:406] relu4 <- conv4
I0428 17:38:40.157745  7412 net.cpp:367] relu4 -> conv4 (in-place)
I0428 17:38:40.157745  7412 net.cpp:122] Setting up relu4
I0428 17:38:40.157745  7412 net.cpp:129] Top shape: 100 16 32 32 (1638400)
I0428 17:38:40.157745  7412 net.cpp:137] Memory required for data: 106086800
I0428 17:38:40.158746  7412 layer_factory.hpp:77] Creating layer conv5
I0428 17:38:40.158746  7412 net.cpp:84] Creating Layer conv5
I0428 17:38:40.158746  7412 net.cpp:406] conv5 <- conv4
I0428 17:38:40.158746  7412 net.cpp:380] conv5 -> conv5
I0428 17:38:40.158746  7412 net.cpp:122] Setting up conv5
I0428 17:38:40.158746  7412 net.cpp:129] Top shape: 100 16 16 16 (409600)
I0428 17:38:40.158746  7412 net.cpp:137] Memory required for data: 107725200
I0428 17:38:40.158746  7412 layer_factory.hpp:77] Creating layer bn_conv5
I0428 17:38:40.158746  7412 net.cpp:84] Creating Layer bn_conv5
I0428 17:38:40.159745  7412 net.cpp:406] bn_conv5 <- conv5
I0428 17:38:40.159745  7412 net.cpp:367] bn_conv5 -> conv5 (in-place)
I0428 17:38:40.159745  7412 net.cpp:122] Setting up bn_conv5
I0428 17:38:40.159745  7412 net.cpp:129] Top shape: 100 16 16 16 (409600)
I0428 17:38:40.159745  7412 net.cpp:137] Memory required for data: 109363600
I0428 17:38:40.159745  7412 layer_factory.hpp:77] Creating layer scale_conv5
I0428 17:38:40.160745  7412 net.cpp:84] Creating Layer scale_conv5
I0428 17:38:40.160745  7412 net.cpp:406] scale_conv5 <- conv5
I0428 17:38:40.160745  7412 net.cpp:367] scale_conv5 -> conv5 (in-place)
I0428 17:38:40.160745  7412 layer_factory.hpp:77] Creating layer scale_conv5
I0428 17:38:40.160745  7412 net.cpp:122] Setting up scale_conv5
I0428 17:38:40.160745  7412 net.cpp:129] Top shape: 100 16 16 16 (409600)
I0428 17:38:40.160745  7412 net.cpp:137] Memory required for data: 111002000
I0428 17:38:40.160745  7412 layer_factory.hpp:77] Creating layer relu5
I0428 17:38:40.160745  7412 net.cpp:84] Creating Layer relu5
I0428 17:38:40.161746  7412 net.cpp:406] relu5 <- conv5
I0428 17:38:40.161746  7412 net.cpp:367] relu5 -> conv5 (in-place)
I0428 17:38:40.161746  7412 net.cpp:122] Setting up relu5
I0428 17:38:40.161746  7412 net.cpp:129] Top shape: 100 16 16 16 (409600)
I0428 17:38:40.161746  7412 net.cpp:137] Memory required for data: 112640400
I0428 17:38:40.161746  7412 layer_factory.hpp:77] Creating layer conv6
I0428 17:38:40.161746  7412 net.cpp:84] Creating Layer conv6
I0428 17:38:40.161746  7412 net.cpp:406] conv6 <- conv5
I0428 17:38:40.161746  7412 net.cpp:380] conv6 -> conv6
I0428 17:38:40.162746  7412 net.cpp:122] Setting up conv6
I0428 17:38:40.162746  7412 net.cpp:129] Top shape: 100 32 16 16 (819200)
I0428 17:38:40.162746  7412 net.cpp:137] Memory required for data: 115917200
I0428 17:38:40.162746  7412 layer_factory.hpp:77] Creating layer bn_conv6
I0428 17:38:40.162746  7412 net.cpp:84] Creating Layer bn_conv6
I0428 17:38:40.163746  7412 net.cpp:406] bn_conv6 <- conv6
I0428 17:38:40.163746  7412 net.cpp:367] bn_conv6 -> conv6 (in-place)
I0428 17:38:40.163746  7412 net.cpp:122] Setting up bn_conv6
I0428 17:38:40.163746  7412 net.cpp:129] Top shape: 100 32 16 16 (819200)
I0428 17:38:40.163746  7412 net.cpp:137] Memory required for data: 119194000
I0428 17:38:40.163746  7412 layer_factory.hpp:77] Creating layer scale_conv6
I0428 17:38:40.163746  7412 net.cpp:84] Creating Layer scale_conv6
I0428 17:38:40.163746  7412 net.cpp:406] scale_conv6 <- conv6
I0428 17:38:40.163746  7412 net.cpp:367] scale_conv6 -> conv6 (in-place)
I0428 17:38:40.163746  7412 layer_factory.hpp:77] Creating layer scale_conv6
I0428 17:38:40.164746  7412 net.cpp:122] Setting up scale_conv6
I0428 17:38:40.164746  7412 net.cpp:129] Top shape: 100 32 16 16 (819200)
I0428 17:38:40.164746  7412 net.cpp:137] Memory required for data: 122470800
I0428 17:38:40.164746  7412 layer_factory.hpp:77] Creating layer relu6
I0428 17:38:40.164746  7412 net.cpp:84] Creating Layer relu6
I0428 17:38:40.164746  7412 net.cpp:406] relu6 <- conv6
I0428 17:38:40.164746  7412 net.cpp:367] relu6 -> conv6 (in-place)
I0428 17:38:40.164746  7412 net.cpp:122] Setting up relu6
I0428 17:38:40.164746  7412 net.cpp:129] Top shape: 100 32 16 16 (819200)
I0428 17:38:40.164746  7412 net.cpp:137] Memory required for data: 125747600
I0428 17:38:40.165746  7412 layer_factory.hpp:77] Creating layer conv7
I0428 17:38:40.165746  7412 net.cpp:84] Creating Layer conv7
I0428 17:38:40.165746  7412 net.cpp:406] conv7 <- conv6
I0428 17:38:40.165746  7412 net.cpp:380] conv7 -> conv7
I0428 17:38:40.165746  7412 net.cpp:122] Setting up conv7
I0428 17:38:40.165746  7412 net.cpp:129] Top shape: 100 32 16 16 (819200)
I0428 17:38:40.165746  7412 net.cpp:137] Memory required for data: 129024400
I0428 17:38:40.165746  7412 layer_factory.hpp:77] Creating layer bn_conv7
I0428 17:38:40.165746  7412 net.cpp:84] Creating Layer bn_conv7
I0428 17:38:40.166746  7412 net.cpp:406] bn_conv7 <- conv7
I0428 17:38:40.166746  7412 net.cpp:367] bn_conv7 -> conv7 (in-place)
I0428 17:38:40.166746  7412 net.cpp:122] Setting up bn_conv7
I0428 17:38:40.166746  7412 net.cpp:129] Top shape: 100 32 16 16 (819200)
I0428 17:38:40.166746  7412 net.cpp:137] Memory required for data: 132301200
I0428 17:38:40.166746  7412 layer_factory.hpp:77] Creating layer scale_conv7
I0428 17:38:40.166746  7412 net.cpp:84] Creating Layer scale_conv7
I0428 17:38:40.166746  7412 net.cpp:406] scale_conv7 <- conv7
I0428 17:38:40.166746  7412 net.cpp:367] scale_conv7 -> conv7 (in-place)
I0428 17:38:40.167747  7412 layer_factory.hpp:77] Creating layer scale_conv7
I0428 17:38:40.167747  7412 net.cpp:122] Setting up scale_conv7
I0428 17:38:40.167747  7412 net.cpp:129] Top shape: 100 32 16 16 (819200)
I0428 17:38:40.167747  7412 net.cpp:137] Memory required for data: 135578000
I0428 17:38:40.167747  7412 layer_factory.hpp:77] Creating layer relu7
I0428 17:38:40.167747  7412 net.cpp:84] Creating Layer relu7
I0428 17:38:40.167747  7412 net.cpp:406] relu7 <- conv7
I0428 17:38:40.167747  7412 net.cpp:367] relu7 -> conv7 (in-place)
I0428 17:38:40.167747  7412 net.cpp:122] Setting up relu7
I0428 17:38:40.167747  7412 net.cpp:129] Top shape: 100 32 16 16 (819200)
I0428 17:38:40.168746  7412 net.cpp:137] Memory required for data: 138854800
I0428 17:38:40.168746  7412 layer_factory.hpp:77] Creating layer conv8
I0428 17:38:40.168746  7412 net.cpp:84] Creating Layer conv8
I0428 17:38:40.168746  7412 net.cpp:406] conv8 <- conv7
I0428 17:38:40.168746  7412 net.cpp:380] conv8 -> conv8
I0428 17:38:40.168746  7412 net.cpp:122] Setting up conv8
I0428 17:38:40.168746  7412 net.cpp:129] Top shape: 100 32 16 16 (819200)
I0428 17:38:40.168746  7412 net.cpp:137] Memory required for data: 142131600
I0428 17:38:40.168746  7412 layer_factory.hpp:77] Creating layer bn_conv8
I0428 17:38:40.169746  7412 net.cpp:84] Creating Layer bn_conv8
I0428 17:38:40.169746  7412 net.cpp:406] bn_conv8 <- conv8
I0428 17:38:40.169746  7412 net.cpp:367] bn_conv8 -> conv8 (in-place)
I0428 17:38:40.169746  7412 net.cpp:122] Setting up bn_conv8
I0428 17:38:40.169746  7412 net.cpp:129] Top shape: 100 32 16 16 (819200)
I0428 17:38:40.169746  7412 net.cpp:137] Memory required for data: 145408400
I0428 17:38:40.169746  7412 layer_factory.hpp:77] Creating layer scale_conv8
I0428 17:38:40.169746  7412 net.cpp:84] Creating Layer scale_conv8
I0428 17:38:40.169746  7412 net.cpp:406] scale_conv8 <- conv8
I0428 17:38:40.170747  7412 net.cpp:367] scale_conv8 -> conv8 (in-place)
I0428 17:38:40.170747  7412 layer_factory.hpp:77] Creating layer scale_conv8
I0428 17:38:40.170747  7412 net.cpp:122] Setting up scale_conv8
I0428 17:38:40.170747  7412 net.cpp:129] Top shape: 100 32 16 16 (819200)
I0428 17:38:40.170747  7412 net.cpp:137] Memory required for data: 148685200
I0428 17:38:40.170747  7412 layer_factory.hpp:77] Creating layer relu8
I0428 17:38:40.170747  7412 net.cpp:84] Creating Layer relu8
I0428 17:38:40.170747  7412 net.cpp:406] relu8 <- conv8
I0428 17:38:40.170747  7412 net.cpp:367] relu8 -> conv8 (in-place)
I0428 17:38:40.171746  7412 net.cpp:122] Setting up relu8
I0428 17:38:40.171746  7412 net.cpp:129] Top shape: 100 32 16 16 (819200)
I0428 17:38:40.171746  7412 net.cpp:137] Memory required for data: 151962000
I0428 17:38:40.171746  7412 layer_factory.hpp:77] Creating layer conv9
I0428 17:38:40.171746  7412 net.cpp:84] Creating Layer conv9
I0428 17:38:40.171746  7412 net.cpp:406] conv9 <- conv8
I0428 17:38:40.171746  7412 net.cpp:380] conv9 -> conv9
I0428 17:38:40.171746  7412 net.cpp:122] Setting up conv9
I0428 17:38:40.172746  7412 net.cpp:129] Top shape: 100 32 16 16 (819200)
I0428 17:38:40.172746  7412 net.cpp:137] Memory required for data: 155238800
I0428 17:38:40.172746  7412 layer_factory.hpp:77] Creating layer bn_conv9
I0428 17:38:40.172746  7412 net.cpp:84] Creating Layer bn_conv9
I0428 17:38:40.172746  7412 net.cpp:406] bn_conv9 <- conv9
I0428 17:38:40.172746  7412 net.cpp:367] bn_conv9 -> conv9 (in-place)
I0428 17:38:40.172746  7412 net.cpp:122] Setting up bn_conv9
I0428 17:38:40.172746  7412 net.cpp:129] Top shape: 100 32 16 16 (819200)
I0428 17:38:40.172746  7412 net.cpp:137] Memory required for data: 158515600
I0428 17:38:40.173746  7412 layer_factory.hpp:77] Creating layer scale_conv9
I0428 17:38:40.173746  7412 net.cpp:84] Creating Layer scale_conv9
I0428 17:38:40.173746  7412 net.cpp:406] scale_conv9 <- conv9
I0428 17:38:40.173746  7412 net.cpp:367] scale_conv9 -> conv9 (in-place)
I0428 17:38:40.173746  7412 layer_factory.hpp:77] Creating layer scale_conv9
I0428 17:38:40.173746  7412 net.cpp:122] Setting up scale_conv9
I0428 17:38:40.173746  7412 net.cpp:129] Top shape: 100 32 16 16 (819200)
I0428 17:38:40.173746  7412 net.cpp:137] Memory required for data: 161792400
I0428 17:38:40.173746  7412 layer_factory.hpp:77] Creating layer relu9
I0428 17:38:40.173746  7412 net.cpp:84] Creating Layer relu9
I0428 17:38:40.174746  7412 net.cpp:406] relu9 <- conv9
I0428 17:38:40.174746  7412 net.cpp:367] relu9 -> conv9 (in-place)
I0428 17:38:40.174746  7412 net.cpp:122] Setting up relu9
I0428 17:38:40.174746  7412 net.cpp:129] Top shape: 100 32 16 16 (819200)
I0428 17:38:40.174746  7412 net.cpp:137] Memory required for data: 165069200
I0428 17:38:40.174746  7412 layer_factory.hpp:77] Creating layer conv10
I0428 17:38:40.174746  7412 net.cpp:84] Creating Layer conv10
I0428 17:38:40.174746  7412 net.cpp:406] conv10 <- conv9
I0428 17:38:40.174746  7412 net.cpp:380] conv10 -> conv10
I0428 17:38:40.175746  7412 net.cpp:122] Setting up conv10
I0428 17:38:40.175746  7412 net.cpp:129] Top shape: 100 32 8 8 (204800)
I0428 17:38:40.175746  7412 net.cpp:137] Memory required for data: 165888400
I0428 17:38:40.175746  7412 layer_factory.hpp:77] Creating layer bn_conv10
I0428 17:38:40.175746  7412 net.cpp:84] Creating Layer bn_conv10
I0428 17:38:40.175746  7412 net.cpp:406] bn_conv10 <- conv10
I0428 17:38:40.175746  7412 net.cpp:367] bn_conv10 -> conv10 (in-place)
I0428 17:38:40.175746  7412 net.cpp:122] Setting up bn_conv10
I0428 17:38:40.176746  7412 net.cpp:129] Top shape: 100 32 8 8 (204800)
I0428 17:38:40.176746  7412 net.cpp:137] Memory required for data: 166707600
I0428 17:38:40.176746  7412 layer_factory.hpp:77] Creating layer scale_conv10
I0428 17:38:40.176746  7412 net.cpp:84] Creating Layer scale_conv10
I0428 17:38:40.176746  7412 net.cpp:406] scale_conv10 <- conv10
I0428 17:38:40.176746  7412 net.cpp:367] scale_conv10 -> conv10 (in-place)
I0428 17:38:40.176746  7412 layer_factory.hpp:77] Creating layer scale_conv10
I0428 17:38:40.176746  7412 net.cpp:122] Setting up scale_conv10
I0428 17:38:40.176746  7412 net.cpp:129] Top shape: 100 32 8 8 (204800)
I0428 17:38:40.176746  7412 net.cpp:137] Memory required for data: 167526800
I0428 17:38:40.177747  7412 layer_factory.hpp:77] Creating layer relu10
I0428 17:38:40.177747  7412 net.cpp:84] Creating Layer relu10
I0428 17:38:40.177747  7412 net.cpp:406] relu10 <- conv10
I0428 17:38:40.177747  7412 net.cpp:367] relu10 -> conv10 (in-place)
I0428 17:38:40.177747  7412 net.cpp:122] Setting up relu10
I0428 17:38:40.177747  7412 net.cpp:129] Top shape: 100 32 8 8 (204800)
I0428 17:38:40.177747  7412 net.cpp:137] Memory required for data: 168346000
I0428 17:38:40.177747  7412 layer_factory.hpp:77] Creating layer conv11
I0428 17:38:40.177747  7412 net.cpp:84] Creating Layer conv11
I0428 17:38:40.177747  7412 net.cpp:406] conv11 <- conv10
I0428 17:38:40.178747  7412 net.cpp:380] conv11 -> conv11
I0428 17:38:40.178747  7412 net.cpp:122] Setting up conv11
I0428 17:38:40.178747  7412 net.cpp:129] Top shape: 100 32 8 8 (204800)
I0428 17:38:40.178747  7412 net.cpp:137] Memory required for data: 169165200
I0428 17:38:40.178747  7412 layer_factory.hpp:77] Creating layer bn_conv11
I0428 17:38:40.178747  7412 net.cpp:84] Creating Layer bn_conv11
I0428 17:38:40.178747  7412 net.cpp:406] bn_conv11 <- conv11
I0428 17:38:40.178747  7412 net.cpp:367] bn_conv11 -> conv11 (in-place)
I0428 17:38:40.179747  7412 net.cpp:122] Setting up bn_conv11
I0428 17:38:40.179747  7412 net.cpp:129] Top shape: 100 32 8 8 (204800)
I0428 17:38:40.179747  7412 net.cpp:137] Memory required for data: 169984400
I0428 17:38:40.179747  7412 layer_factory.hpp:77] Creating layer scale_conv11
I0428 17:38:40.179747  7412 net.cpp:84] Creating Layer scale_conv11
I0428 17:38:40.179747  7412 net.cpp:406] scale_conv11 <- conv11
I0428 17:38:40.179747  7412 net.cpp:367] scale_conv11 -> conv11 (in-place)
I0428 17:38:40.179747  7412 layer_factory.hpp:77] Creating layer scale_conv11
I0428 17:38:40.179747  7412 net.cpp:122] Setting up scale_conv11
I0428 17:38:40.179747  7412 net.cpp:129] Top shape: 100 32 8 8 (204800)
I0428 17:38:40.180747  7412 net.cpp:137] Memory required for data: 170803600
I0428 17:38:40.180747  7412 layer_factory.hpp:77] Creating layer relu11
I0428 17:38:40.180747  7412 net.cpp:84] Creating Layer relu11
I0428 17:38:40.180747  7412 net.cpp:406] relu11 <- conv11
I0428 17:38:40.180747  7412 net.cpp:367] relu11 -> conv11 (in-place)
I0428 17:38:40.180747  7412 net.cpp:122] Setting up relu11
I0428 17:38:40.180747  7412 net.cpp:129] Top shape: 100 32 8 8 (204800)
I0428 17:38:40.180747  7412 net.cpp:137] Memory required for data: 171622800
I0428 17:38:40.180747  7412 layer_factory.hpp:77] Creating layer conv12
I0428 17:38:40.180747  7412 net.cpp:84] Creating Layer conv12
I0428 17:38:40.181747  7412 net.cpp:406] conv12 <- conv11
I0428 17:38:40.181747  7412 net.cpp:380] conv12 -> conv12
I0428 17:38:40.181747  7412 net.cpp:122] Setting up conv12
I0428 17:38:40.181747  7412 net.cpp:129] Top shape: 100 32 8 8 (204800)
I0428 17:38:40.181747  7412 net.cpp:137] Memory required for data: 172442000
I0428 17:38:40.181747  7412 layer_factory.hpp:77] Creating layer bn_conv12
I0428 17:38:40.181747  7412 net.cpp:84] Creating Layer bn_conv12
I0428 17:38:40.181747  7412 net.cpp:406] bn_conv12 <- conv12
I0428 17:38:40.181747  7412 net.cpp:367] bn_conv12 -> conv12 (in-place)
I0428 17:38:40.182747  7412 net.cpp:122] Setting up bn_conv12
I0428 17:38:40.182747  7412 net.cpp:129] Top shape: 100 32 8 8 (204800)
I0428 17:38:40.182747  7412 net.cpp:137] Memory required for data: 173261200
I0428 17:38:40.182747  7412 layer_factory.hpp:77] Creating layer scale_conv12
I0428 17:38:40.182747  7412 net.cpp:84] Creating Layer scale_conv12
I0428 17:38:40.182747  7412 net.cpp:406] scale_conv12 <- conv12
I0428 17:38:40.182747  7412 net.cpp:367] scale_conv12 -> conv12 (in-place)
I0428 17:38:40.182747  7412 layer_factory.hpp:77] Creating layer scale_conv12
I0428 17:38:40.182747  7412 net.cpp:122] Setting up scale_conv12
I0428 17:38:40.183748  7412 net.cpp:129] Top shape: 100 32 8 8 (204800)
I0428 17:38:40.183748  7412 net.cpp:137] Memory required for data: 174080400
I0428 17:38:40.183748  7412 layer_factory.hpp:77] Creating layer relu12
I0428 17:38:40.183748  7412 net.cpp:84] Creating Layer relu12
I0428 17:38:40.183748  7412 net.cpp:406] relu12 <- conv12
I0428 17:38:40.183748  7412 net.cpp:367] relu12 -> conv12 (in-place)
I0428 17:38:40.183748  7412 net.cpp:122] Setting up relu12
I0428 17:38:40.183748  7412 net.cpp:129] Top shape: 100 32 8 8 (204800)
I0428 17:38:40.184747  7412 net.cpp:137] Memory required for data: 174899600
I0428 17:38:40.184747  7412 layer_factory.hpp:77] Creating layer conv13
I0428 17:38:40.184747  7412 net.cpp:84] Creating Layer conv13
I0428 17:38:40.184747  7412 net.cpp:406] conv13 <- conv12
I0428 17:38:40.184747  7412 net.cpp:380] conv13 -> conv13
I0428 17:38:40.184747  7412 net.cpp:122] Setting up conv13
I0428 17:38:40.184747  7412 net.cpp:129] Top shape: 100 32 8 8 (204800)
I0428 17:38:40.184747  7412 net.cpp:137] Memory required for data: 175718800
I0428 17:38:40.185747  7412 layer_factory.hpp:77] Creating layer bn_conv13
I0428 17:38:40.185747  7412 net.cpp:84] Creating Layer bn_conv13
I0428 17:38:40.185747  7412 net.cpp:406] bn_conv13 <- conv13
I0428 17:38:40.185747  7412 net.cpp:367] bn_conv13 -> conv13 (in-place)
I0428 17:38:40.185747  7412 net.cpp:122] Setting up bn_conv13
I0428 17:38:40.185747  7412 net.cpp:129] Top shape: 100 32 8 8 (204800)
I0428 17:38:40.185747  7412 net.cpp:137] Memory required for data: 176538000
I0428 17:38:40.185747  7412 layer_factory.hpp:77] Creating layer scale_conv13
I0428 17:38:40.185747  7412 net.cpp:84] Creating Layer scale_conv13
I0428 17:38:40.185747  7412 net.cpp:406] scale_conv13 <- conv13
I0428 17:38:40.186748  7412 net.cpp:367] scale_conv13 -> conv13 (in-place)
I0428 17:38:40.186748  7412 layer_factory.hpp:77] Creating layer scale_conv13
I0428 17:38:40.186748  7412 net.cpp:122] Setting up scale_conv13
I0428 17:38:40.186748  7412 net.cpp:129] Top shape: 100 32 8 8 (204800)
I0428 17:38:40.186748  7412 net.cpp:137] Memory required for data: 177357200
I0428 17:38:40.186748  7412 layer_factory.hpp:77] Creating layer relu13
I0428 17:38:40.186748  7412 net.cpp:84] Creating Layer relu13
I0428 17:38:40.186748  7412 net.cpp:406] relu13 <- conv13
I0428 17:38:40.186748  7412 net.cpp:367] relu13 -> conv13 (in-place)
I0428 17:38:40.187747  7412 net.cpp:122] Setting up relu13
I0428 17:38:40.187747  7412 net.cpp:129] Top shape: 100 32 8 8 (204800)
I0428 17:38:40.187747  7412 net.cpp:137] Memory required for data: 178176400
I0428 17:38:40.187747  7412 layer_factory.hpp:77] Creating layer conv14
I0428 17:38:40.187747  7412 net.cpp:84] Creating Layer conv14
I0428 17:38:40.187747  7412 net.cpp:406] conv14 <- conv13
I0428 17:38:40.187747  7412 net.cpp:380] conv14 -> conv14
I0428 17:38:40.187747  7412 net.cpp:122] Setting up conv14
I0428 17:38:40.187747  7412 net.cpp:129] Top shape: 100 32 8 8 (204800)
I0428 17:38:40.188747  7412 net.cpp:137] Memory required for data: 178995600
I0428 17:38:40.188747  7412 layer_factory.hpp:77] Creating layer bn_conv14
I0428 17:38:40.188747  7412 net.cpp:84] Creating Layer bn_conv14
I0428 17:38:40.188747  7412 net.cpp:406] bn_conv14 <- conv14
I0428 17:38:40.188747  7412 net.cpp:367] bn_conv14 -> conv14 (in-place)
I0428 17:38:40.188747  7412 net.cpp:122] Setting up bn_conv14
I0428 17:38:40.188747  7412 net.cpp:129] Top shape: 100 32 8 8 (204800)
I0428 17:38:40.188747  7412 net.cpp:137] Memory required for data: 179814800
I0428 17:38:40.189748  7412 layer_factory.hpp:77] Creating layer scale_conv14
I0428 17:38:40.189748  7412 net.cpp:84] Creating Layer scale_conv14
I0428 17:38:40.189748  7412 net.cpp:406] scale_conv14 <- conv14
I0428 17:38:40.189748  7412 net.cpp:367] scale_conv14 -> conv14 (in-place)
I0428 17:38:40.189748  7412 layer_factory.hpp:77] Creating layer scale_conv14
I0428 17:38:40.189748  7412 net.cpp:122] Setting up scale_conv14
I0428 17:38:40.189748  7412 net.cpp:129] Top shape: 100 32 8 8 (204800)
I0428 17:38:40.189748  7412 net.cpp:137] Memory required for data: 180634000
I0428 17:38:40.189748  7412 layer_factory.hpp:77] Creating layer relu14
I0428 17:38:40.189748  7412 net.cpp:84] Creating Layer relu14
I0428 17:38:40.190747  7412 net.cpp:406] relu14 <- conv14
I0428 17:38:40.190747  7412 net.cpp:367] relu14 -> conv14 (in-place)
I0428 17:38:40.190747  7412 net.cpp:122] Setting up relu14
I0428 17:38:40.190747  7412 net.cpp:129] Top shape: 100 32 8 8 (204800)
I0428 17:38:40.190747  7412 net.cpp:137] Memory required for data: 181453200
I0428 17:38:40.190747  7412 layer_factory.hpp:77] Creating layer conv15
I0428 17:38:40.190747  7412 net.cpp:84] Creating Layer conv15
I0428 17:38:40.190747  7412 net.cpp:406] conv15 <- conv14
I0428 17:38:40.190747  7412 net.cpp:380] conv15 -> conv15
I0428 17:38:40.191747  7412 net.cpp:122] Setting up conv15
I0428 17:38:40.191747  7412 net.cpp:129] Top shape: 100 32 4 4 (51200)
I0428 17:38:40.191747  7412 net.cpp:137] Memory required for data: 181658000
I0428 17:38:40.191747  7412 layer_factory.hpp:77] Creating layer bn_conv15
I0428 17:38:40.191747  7412 net.cpp:84] Creating Layer bn_conv15
I0428 17:38:40.191747  7412 net.cpp:406] bn_conv15 <- conv15
I0428 17:38:40.191747  7412 net.cpp:367] bn_conv15 -> conv15 (in-place)
I0428 17:38:40.191747  7412 net.cpp:122] Setting up bn_conv15
I0428 17:38:40.192747  7412 net.cpp:129] Top shape: 100 32 4 4 (51200)
I0428 17:38:40.192747  7412 net.cpp:137] Memory required for data: 181862800
I0428 17:38:40.192747  7412 layer_factory.hpp:77] Creating layer scale_conv15
I0428 17:38:40.192747  7412 net.cpp:84] Creating Layer scale_conv15
I0428 17:38:40.192747  7412 net.cpp:406] scale_conv15 <- conv15
I0428 17:38:40.192747  7412 net.cpp:367] scale_conv15 -> conv15 (in-place)
I0428 17:38:40.192747  7412 layer_factory.hpp:77] Creating layer scale_conv15
I0428 17:38:40.192747  7412 net.cpp:122] Setting up scale_conv15
I0428 17:38:40.192747  7412 net.cpp:129] Top shape: 100 32 4 4 (51200)
I0428 17:38:40.192747  7412 net.cpp:137] Memory required for data: 182067600
I0428 17:38:40.193747  7412 layer_factory.hpp:77] Creating layer relu15
I0428 17:38:40.193747  7412 net.cpp:84] Creating Layer relu15
I0428 17:38:40.193747  7412 net.cpp:406] relu15 <- conv15
I0428 17:38:40.193747  7412 net.cpp:367] relu15 -> conv15 (in-place)
I0428 17:38:40.193747  7412 net.cpp:122] Setting up relu15
I0428 17:38:40.193747  7412 net.cpp:129] Top shape: 100 32 4 4 (51200)
I0428 17:38:40.193747  7412 net.cpp:137] Memory required for data: 182272400
I0428 17:38:40.193747  7412 layer_factory.hpp:77] Creating layer conv16
I0428 17:38:40.194747  7412 net.cpp:84] Creating Layer conv16
I0428 17:38:40.194747  7412 net.cpp:406] conv16 <- conv15
I0428 17:38:40.194747  7412 net.cpp:380] conv16 -> conv16
I0428 17:38:40.194747  7412 net.cpp:122] Setting up conv16
I0428 17:38:40.194747  7412 net.cpp:129] Top shape: 100 32 4 4 (51200)
I0428 17:38:40.194747  7412 net.cpp:137] Memory required for data: 182477200
I0428 17:38:40.194747  7412 layer_factory.hpp:77] Creating layer bn_conv16
I0428 17:38:40.194747  7412 net.cpp:84] Creating Layer bn_conv16
I0428 17:38:40.195747  7412 net.cpp:406] bn_conv16 <- conv16
I0428 17:38:40.195747  7412 net.cpp:367] bn_conv16 -> conv16 (in-place)
I0428 17:38:40.195747  7412 net.cpp:122] Setting up bn_conv16
I0428 17:38:40.195747  7412 net.cpp:129] Top shape: 100 32 4 4 (51200)
I0428 17:38:40.195747  7412 net.cpp:137] Memory required for data: 182682000
I0428 17:38:40.195747  7412 layer_factory.hpp:77] Creating layer scale_conv16
I0428 17:38:40.195747  7412 net.cpp:84] Creating Layer scale_conv16
I0428 17:38:40.195747  7412 net.cpp:406] scale_conv16 <- conv16
I0428 17:38:40.195747  7412 net.cpp:367] scale_conv16 -> conv16 (in-place)
I0428 17:38:40.196748  7412 layer_factory.hpp:77] Creating layer scale_conv16
I0428 17:38:40.196748  7412 net.cpp:122] Setting up scale_conv16
I0428 17:38:40.196748  7412 net.cpp:129] Top shape: 100 32 4 4 (51200)
I0428 17:38:40.196748  7412 net.cpp:137] Memory required for data: 182886800
I0428 17:38:40.196748  7412 layer_factory.hpp:77] Creating layer relu16
I0428 17:38:40.196748  7412 net.cpp:84] Creating Layer relu16
I0428 17:38:40.196748  7412 net.cpp:406] relu16 <- conv16
I0428 17:38:40.196748  7412 net.cpp:367] relu16 -> conv16 (in-place)
I0428 17:38:40.196748  7412 net.cpp:122] Setting up relu16
I0428 17:38:40.197748  7412 net.cpp:129] Top shape: 100 32 4 4 (51200)
I0428 17:38:40.197748  7412 net.cpp:137] Memory required for data: 183091600
I0428 17:38:40.197748  7412 layer_factory.hpp:77] Creating layer conv17
I0428 17:38:40.197748  7412 net.cpp:84] Creating Layer conv17
I0428 17:38:40.197748  7412 net.cpp:406] conv17 <- conv16
I0428 17:38:40.197748  7412 net.cpp:380] conv17 -> conv17
I0428 17:38:40.197748  7412 net.cpp:122] Setting up conv17
I0428 17:38:40.197748  7412 net.cpp:129] Top shape: 100 32 4 4 (51200)
I0428 17:38:40.197748  7412 net.cpp:137] Memory required for data: 183296400
I0428 17:38:40.198748  7412 layer_factory.hpp:77] Creating layer bn_conv17
I0428 17:38:40.198748  7412 net.cpp:84] Creating Layer bn_conv17
I0428 17:38:40.198748  7412 net.cpp:406] bn_conv17 <- conv17
I0428 17:38:40.198748  7412 net.cpp:367] bn_conv17 -> conv17 (in-place)
I0428 17:38:40.198748  7412 net.cpp:122] Setting up bn_conv17
I0428 17:38:40.198748  7412 net.cpp:129] Top shape: 100 32 4 4 (51200)
I0428 17:38:40.198748  7412 net.cpp:137] Memory required for data: 183501200
I0428 17:38:40.198748  7412 layer_factory.hpp:77] Creating layer scale_conv17
I0428 17:38:40.199748  7412 net.cpp:84] Creating Layer scale_conv17
I0428 17:38:40.199748  7412 net.cpp:406] scale_conv17 <- conv17
I0428 17:38:40.199748  7412 net.cpp:367] scale_conv17 -> conv17 (in-place)
I0428 17:38:40.199748  7412 layer_factory.hpp:77] Creating layer scale_conv17
I0428 17:38:40.199748  7412 net.cpp:122] Setting up scale_conv17
I0428 17:38:40.199748  7412 net.cpp:129] Top shape: 100 32 4 4 (51200)
I0428 17:38:40.199748  7412 net.cpp:137] Memory required for data: 183706000
I0428 17:38:40.199748  7412 layer_factory.hpp:77] Creating layer relu17
I0428 17:38:40.199748  7412 net.cpp:84] Creating Layer relu17
I0428 17:38:40.200748  7412 net.cpp:406] relu17 <- conv17
I0428 17:38:40.200748  7412 net.cpp:367] relu17 -> conv17 (in-place)
I0428 17:38:40.200748  7412 net.cpp:122] Setting up relu17
I0428 17:38:40.200748  7412 net.cpp:129] Top shape: 100 32 4 4 (51200)
I0428 17:38:40.200748  7412 net.cpp:137] Memory required for data: 183910800
I0428 17:38:40.200748  7412 layer_factory.hpp:77] Creating layer conv18
I0428 17:38:40.200748  7412 net.cpp:84] Creating Layer conv18
I0428 17:38:40.200748  7412 net.cpp:406] conv18 <- conv17
I0428 17:38:40.200748  7412 net.cpp:380] conv18 -> conv18
I0428 17:38:40.201748  7412 net.cpp:122] Setting up conv18
I0428 17:38:40.201748  7412 net.cpp:129] Top shape: 100 32 4 4 (51200)
I0428 17:38:40.201748  7412 net.cpp:137] Memory required for data: 184115600
I0428 17:38:40.201748  7412 layer_factory.hpp:77] Creating layer bn_conv17
I0428 17:38:40.201748  7412 net.cpp:84] Creating Layer bn_conv17
I0428 17:38:40.201748  7412 net.cpp:406] bn_conv17 <- conv18
I0428 17:38:40.201748  7412 net.cpp:367] bn_conv17 -> conv18 (in-place)
I0428 17:38:40.201748  7412 net.cpp:122] Setting up bn_conv17
I0428 17:38:40.201748  7412 net.cpp:129] Top shape: 100 32 4 4 (51200)
I0428 17:38:40.202749  7412 net.cpp:137] Memory required for data: 184320400
I0428 17:38:40.202749  7412 layer_factory.hpp:77] Creating layer scale_conv18
I0428 17:38:40.202749  7412 net.cpp:84] Creating Layer scale_conv18
I0428 17:38:40.202749  7412 net.cpp:406] scale_conv18 <- conv18
I0428 17:38:40.202749  7412 net.cpp:367] scale_conv18 -> conv18 (in-place)
I0428 17:38:40.202749  7412 layer_factory.hpp:77] Creating layer scale_conv18
I0428 17:38:40.202749  7412 net.cpp:122] Setting up scale_conv18
I0428 17:38:40.202749  7412 net.cpp:129] Top shape: 100 32 4 4 (51200)
I0428 17:38:40.202749  7412 net.cpp:137] Memory required for data: 184525200
I0428 17:38:40.203748  7412 layer_factory.hpp:77] Creating layer relu18
I0428 17:38:40.203748  7412 net.cpp:84] Creating Layer relu18
I0428 17:38:40.203748  7412 net.cpp:406] relu18 <- conv18
I0428 17:38:40.203748  7412 net.cpp:367] relu18 -> conv18 (in-place)
I0428 17:38:40.203748  7412 net.cpp:122] Setting up relu18
I0428 17:38:40.203748  7412 net.cpp:129] Top shape: 100 32 4 4 (51200)
I0428 17:38:40.203748  7412 net.cpp:137] Memory required for data: 184730000
I0428 17:38:40.203748  7412 layer_factory.hpp:77] Creating layer conv19
I0428 17:38:40.203748  7412 net.cpp:84] Creating Layer conv19
I0428 17:38:40.203748  7412 net.cpp:406] conv19 <- conv18
I0428 17:38:40.204748  7412 net.cpp:380] conv19 -> conv19
I0428 17:38:40.204748  7412 net.cpp:122] Setting up conv19
I0428 17:38:40.204748  7412 net.cpp:129] Top shape: 100 32 4 4 (51200)
I0428 17:38:40.204748  7412 net.cpp:137] Memory required for data: 184934800
I0428 17:38:40.204748  7412 layer_factory.hpp:77] Creating layer bn_conv19
I0428 17:38:40.204748  7412 net.cpp:84] Creating Layer bn_conv19
I0428 17:38:40.204748  7412 net.cpp:406] bn_conv19 <- conv19
I0428 17:38:40.204748  7412 net.cpp:367] bn_conv19 -> conv19 (in-place)
I0428 17:38:40.205749  7412 net.cpp:122] Setting up bn_conv19
I0428 17:38:40.205749  7412 net.cpp:129] Top shape: 100 32 4 4 (51200)
I0428 17:38:40.205749  7412 net.cpp:137] Memory required for data: 185139600
I0428 17:38:40.205749  7412 layer_factory.hpp:77] Creating layer scale_conv19
I0428 17:38:40.205749  7412 net.cpp:84] Creating Layer scale_conv19
I0428 17:38:40.205749  7412 net.cpp:406] scale_conv19 <- conv19
I0428 17:38:40.205749  7412 net.cpp:367] scale_conv19 -> conv19 (in-place)
I0428 17:38:40.205749  7412 layer_factory.hpp:77] Creating layer scale_conv19
I0428 17:38:40.206748  7412 net.cpp:122] Setting up scale_conv19
I0428 17:38:40.206748  7412 net.cpp:129] Top shape: 100 32 4 4 (51200)
I0428 17:38:40.206748  7412 net.cpp:137] Memory required for data: 185344400
I0428 17:38:40.206748  7412 layer_factory.hpp:77] Creating layer relu19
I0428 17:38:40.206748  7412 net.cpp:84] Creating Layer relu19
I0428 17:38:40.206748  7412 net.cpp:406] relu19 <- conv19
I0428 17:38:40.206748  7412 net.cpp:367] relu19 -> conv19 (in-place)
I0428 17:38:40.206748  7412 net.cpp:122] Setting up relu19
I0428 17:38:40.206748  7412 net.cpp:129] Top shape: 100 32 4 4 (51200)
I0428 17:38:40.206748  7412 net.cpp:137] Memory required for data: 185549200
I0428 17:38:40.207748  7412 layer_factory.hpp:77] Creating layer conv20
I0428 17:38:40.207748  7412 net.cpp:84] Creating Layer conv20
I0428 17:38:40.207748  7412 net.cpp:406] conv20 <- conv19
I0428 17:38:40.207748  7412 net.cpp:380] conv20 -> conv20
I0428 17:38:40.207748  7412 net.cpp:122] Setting up conv20
I0428 17:38:40.207748  7412 net.cpp:129] Top shape: 100 32 4 4 (51200)
I0428 17:38:40.207748  7412 net.cpp:137] Memory required for data: 185754000
I0428 17:38:40.207748  7412 layer_factory.hpp:77] Creating layer bn_conv20
I0428 17:38:40.207748  7412 net.cpp:84] Creating Layer bn_conv20
I0428 17:38:40.208748  7412 net.cpp:406] bn_conv20 <- conv20
I0428 17:38:40.208748  7412 net.cpp:367] bn_conv20 -> conv20 (in-place)
I0428 17:38:40.208748  7412 net.cpp:122] Setting up bn_conv20
I0428 17:38:40.208748  7412 net.cpp:129] Top shape: 100 32 4 4 (51200)
I0428 17:38:40.208748  7412 net.cpp:137] Memory required for data: 185958800
I0428 17:38:40.208748  7412 layer_factory.hpp:77] Creating layer scale_conv20
I0428 17:38:40.208748  7412 net.cpp:84] Creating Layer scale_conv20
I0428 17:38:40.208748  7412 net.cpp:406] scale_conv20 <- conv20
I0428 17:38:40.208748  7412 net.cpp:367] scale_conv20 -> conv20 (in-place)
I0428 17:38:40.209748  7412 layer_factory.hpp:77] Creating layer scale_conv20
I0428 17:38:40.209748  7412 net.cpp:122] Setting up scale_conv20
I0428 17:38:40.209748  7412 net.cpp:129] Top shape: 100 32 4 4 (51200)
I0428 17:38:40.209748  7412 net.cpp:137] Memory required for data: 186163600
I0428 17:38:40.209748  7412 layer_factory.hpp:77] Creating layer relu20
I0428 17:38:40.209748  7412 net.cpp:84] Creating Layer relu20
I0428 17:38:40.209748  7412 net.cpp:406] relu20 <- conv20
I0428 17:38:40.209748  7412 net.cpp:367] relu20 -> conv20 (in-place)
I0428 17:38:40.209748  7412 net.cpp:122] Setting up relu20
I0428 17:38:40.210748  7412 net.cpp:129] Top shape: 100 32 4 4 (51200)
I0428 17:38:40.210748  7412 net.cpp:137] Memory required for data: 186368400
I0428 17:38:40.210748  7412 layer_factory.hpp:77] Creating layer pool21
I0428 17:38:40.210748  7412 net.cpp:84] Creating Layer pool21
I0428 17:38:40.210748  7412 net.cpp:406] pool21 <- conv20
I0428 17:38:40.210748  7412 net.cpp:380] pool21 -> pool21
I0428 17:38:40.210748  7412 net.cpp:122] Setting up pool21
I0428 17:38:40.210748  7412 net.cpp:129] Top shape: 100 32 1 1 (3200)
I0428 17:38:40.210748  7412 net.cpp:137] Memory required for data: 186381200
I0428 17:38:40.210748  7412 layer_factory.hpp:77] Creating layer fc22
I0428 17:38:40.211748  7412 net.cpp:84] Creating Layer fc22
I0428 17:38:40.211748  7412 net.cpp:406] fc22 <- pool21
I0428 17:38:40.211748  7412 net.cpp:380] fc22 -> fc22
I0428 17:38:40.211748  7412 net.cpp:122] Setting up fc22
I0428 17:38:40.211748  7412 net.cpp:129] Top shape: 100 10 (1000)
I0428 17:38:40.211748  7412 net.cpp:137] Memory required for data: 186385200
I0428 17:38:40.211748  7412 layer_factory.hpp:77] Creating layer loss
I0428 17:38:40.211748  7412 net.cpp:84] Creating Layer loss
I0428 17:38:40.212749  7412 net.cpp:406] loss <- fc22
I0428 17:38:40.212749  7412 net.cpp:406] loss <- label
I0428 17:38:40.212749  7412 net.cpp:380] loss -> loss
I0428 17:38:40.212749  7412 layer_factory.hpp:77] Creating layer loss
…
I0428 17:38:40.223749  7412 net.cpp:294] The NetState phase (1) differed from the phase (0) specified by a rule in layer data
I0428 17:38:40.224750  7412 net.cpp:51] Initializing net from parameters: 
name: "CaffeNet"
state {
  phase: TEST
}
layer {
  name: "data"
  type: "Data"
  top: "data"
  top: "label"
  include {
    phase: TEST
  }
  transform_param {
    mirror: false
    crop_size: 32
    mean_value: 104
    mean_value: 117
    mean_value: 123
  }
  data_param {
    source: "D:/_test/train/img_test_lmdb"
    batch_size: 100
    backend: LMDB
  }
}
layer {
  name: "conv1"
  type: "Convolution"
  bottom: "data"
  top: "conv1"
  param {
    lr_mult: 1
    decay_mult: 1
  }
  param {
    lr_mult: 2
    decay_mult: 0
  }
  convolution_param {
    num_output: 16
    pad: 1
    kernel_size: 3
    stride: 1
    weight_filler {
      type: "xavier"
      variance_norm: FAN_IN
    }
    bias_filler {
      type: "constant"
      value: 0
    }
  }
}
layer {
  name: "bn_conv1"
  type: "BatchNorm"
  bottom: "conv1"
  top: "conv1"
  batch_norm_param {
    use_global_stats: false
  }
}
layer {
  name: "scale_conv1"
  type: "Scale"
  bottom: "conv1"
  top: "conv1"
  scale_param {
    bias_term: true
  }
}
layer {
  name: "relu1"
  type: "ReLU"
  bottom: "conv1"
  top: "conv1"
}
layer {
  name: "conv2"
  type: "Convolution"
  bottom: "conv1"
  top: "conv2"
  param {
    lr_mult: 1
    decay_mult: 1
  }
  param {
    lr_mult: 2
    decay_mult: 0
  }
  convolution_param {
    num_output: 16
    pad: 1
    kernel_size: 3
    stride: 1
    weight_filler {
      type: "xavier"
      variance_norm: FAN_IN
    }
    bias_filler {
      type: "constant"
      value: 1
    }
  }
}
layer {
  name: "bn_conv2"
  type: "BatchNorm"
  bottom: "conv2"
  top: "conv2"
  batch_norm_param {
    use_global_stats: false
  }
}
layer {
  name: "scale_conv2"
  type: "Scale"
  bottom: "conv2"
  top: "conv2"
  scale_param {
    bias_term: true
  }
}
layer {
  name: "relu2"
  type: "ReLU"
  bottom: "conv2"
  top: "conv2"
}
layer {
  name: "conv3"
  type: "Convolution"
  bottom: "conv2"
  top: "conv3"
  param {
    lr_mult: 1
    decay_mult: 1
  }
  param {
    lr_mult: 2
    decay_mult: 0
  }
  convolution_param {
    num_output: 16
    pad: 1
    kernel_size: 3
    stride: 1
    weight_filler {
      type: "xavier"
      variance_norm: FAN_IN
    }
    bias_filler {
      type: "constant"
      value: 0
    }
  }
}
layer {
  name: "bn_conv3"
  type: "BatchNorm"
  bottom: "conv3"
  top: "conv3"
  batch_norm_param {
    use_global_stats: false
  }
}
layer {
  name: "scale_conv3"
  type: "Scale"
  bottom: "conv3"
  top: "conv3"
  scale_param {
    bias_term: true
  }
}
layer {
  name: "relu3"
  type: "ReLU"
  bottom: "conv3"
  top: "conv3"
}
layer {
  name: "conv4"
  type: "Convolution"
  bottom: "conv3"
  top: "conv4"
  param {
    lr_mult: 1
    decay_mult: 1
  }
  param {
    lr_mult: 2
    decay_mult: 0
  }
  convolution_param {
    num_output: 16
    pad: 1
    kernel_size: 3
    stride: 1
    weight_filler {
      type: "xavier"
      variance_norm: FAN_IN
    }
    bias_filler {
      type: "constant"
      value: 1
    }
  }
}
layer {
  name: "bn_conv4"
  type: "BatchNorm"
  bottom: "conv4"
  top: "conv4"
  batch_norm_param {
    use_global_stats: false
  }
}
layer {
  name: "scale_conv4"
  type: "Scale"
  bottom: "conv4"
  top: "conv4"
  scale_param {
    bias_term: true
  }
}
layer {
  name: "relu4"
  type: "ReLU"
  bottom: "conv4"
  top: "conv4"
}
layer {
  name: "conv5"
  type: "Convolution"
  bottom: "conv4"
  top: "conv5"
  param {
    lr_mult: 1
    decay_mult: 1
  }
  param {
    lr_mult: 2
    decay_mult: 0
  }
  convolution_param {
    num_output: 16
    pad: 1
    kernel_size: 3
    stride: 2
    weight_filler {
      type: "xavier"
      variance_norm: FAN_IN
    }
    bias_filler {
      type: "constant"
      value: 1
    }
  }
}
layer {
  name: "bn_conv5"
  type: "BatchNorm"
  bottom: "conv5"
  top: "conv5"
  batch_norm_param {
    use_global_stats: false
  }
}
layer {
  name: "scale_conv5"
  type: "Scale"
  bottom: "conv5"
  top: "conv5"
  scale_param {
    bias_term: true
  }
}
layer {
  name: "relu5"
  type: "ReLU"
  bottom: "conv5"
  top: "conv5"
}
layer {
  name: "conv6"
  type: "Convolution"
  bottom: "conv5"
  top: "conv6"
  param {
    lr_mult: 1
    decay_mult: 1
  }
  param {
    lr_mult: 2
    decay_mult: 0
  }
  convolution_param {
    num_output: 32
    pad: 1
    kernel_size: 3
    stride: 1
    weight_filler {
      type: "xavier"
      variance_norm: FAN_IN
    }
    bias_filler {
      type: "constant"
      value: 1
    }
  }
}
layer {
  name: "bn_conv6"
  type: "BatchNorm"
  bottom: "conv6"
  top: "conv6"
  batch_norm_param {
    use_global_stats: false
  }
}
layer {
  name: "scale_conv6"
  type: "Scale"
  bottom: "conv6"
  top: "conv6"
  scale_param {
    bias_term: true
  }
}
layer {
  name: "relu6"
  type: "ReLU"
  bottom: "conv6"
  top: "conv6"
}
layer {
  name: "conv7"
  type: "Convolution"
  bottom: "conv6"
  top: "conv7"
  param {
    lr_mult: 1
    decay_mult: 1
  }
  param {
    lr_mult: 2
    decay_mult: 0
  }
  convolution_param {
    num_output: 32
    pad: 1
    kernel_size: 3
    stride: 1
    weight_filler {
      type: "xavier"
      variance_norm: FAN_IN
    }
    bias_filler {
      type: "constant"
      value: 1
    }
  }
}
layer {
  name: "bn_conv7"
  type: "BatchNorm"
  bottom: "conv7"
  top: "conv7"
  batch_norm_param {
    use_global_stats: false
  }
}
layer {
  name: "scale_conv7"
  type: "Scale"
  bottom: "conv7"
  top: "conv7"
  scale_param {
    bias_term: true
  }
}
layer {
  name: "relu7"
  type: "ReLU"
  bottom: "conv7"
  top: "conv7"
}
layer {
  name: "conv8"
  type: "Convolution"
  bottom: "conv7"
  top: "conv8"
  param {
    lr_mult: 1
    decay_mult: 1
  }
  param {
    lr_mult: 2
    decay_mult: 0
  }
  convolution_param {
    num_output: 32
    pad: 1
    kernel_size: 3
    stride: 1
    weight_filler {
      type: "xavier"
      variance_norm: FAN_IN
    }
    bias_filler {
      type: "constant"
      value: 1
    }
  }
}
layer {
  name: "bn_conv8"
  type: "BatchNorm"
  bottom: "conv8"
  top: "conv8"
  batch_norm_param {
    use_global_stats: false
  }
}
layer {
  name: "scale_conv8"
  type: "Scale"
  bottom: "conv8"
  top: "conv8"
  scale_param {
    bias_term: true
  }
}
layer {
  name: "relu8"
  type: "ReLU"
  bottom: "conv8"
  top: "conv8"
}
layer {
  name: "conv9"
  type: "Convolution"
  bottom: "conv8"
  top: "conv9"
  param {
    lr_mult: 1
    decay_mult: 1
  }
  param {
    lr_mult: 2
    decay_mult: 0
  }
  convolution_param {
    num_output: 32
    pad: 1
    kernel_size: 3
    stride: 1
    weight_filler {
      type: "xavier"
      variance_norm: FAN_IN
    }
    bias_filler {
      type: "constant"
      value: 1
    }
  }
}
layer {
  name: "bn_conv9"
  type: "BatchNorm"
  bottom: "conv9"
  top: "conv9"
  batch_norm_param {
    use_global_stats: false
  }
}
layer {
  name: "scale_conv9"
  type: "Scale"
  bottom: "conv9"
  top: "conv9"
  scale_param {
    bias_term: true
  }
}
layer {
  name: "relu9"
  type: "ReLU"
  bottom: "conv9"
  top: "conv9"
}
layer {
  name: "conv10"
  type: "Convolution"
  bottom: "conv9"
  top: "conv10"
  param {
    lr_mult: 1
    decay_mult: 1
  }
  param {
    lr_mult: 2
    decay_mult: 0
  }
  convolution_param {
    num_output: 32
    pad: 1
    kernel_size: 3
    stride: 2
    weight_filler {
      type: "xavier"
      variance_norm: FAN_IN
    }
    bias_filler {
      type: "constant"
      value: 1
    }
  }
}
layer {
  name: "bn_conv10"
  type: "BatchNorm"
  bottom: "conv10"
  top: "conv10"
  batch_norm_param {
    use_global_stats: false
  }
}
layer {
  name: "scale_conv10"
  type: "Scale"
  bottom: "conv10"
  top: "conv10"
  scale_param {
    bias_term: true
  }
}
layer {
  name: "relu10"
  type: "ReLU"
  bottom: "conv10"
  top: "conv10"
}
layer {
  name: "conv11"
  type: "Convolution"
  bottom: "conv10"
  top: "conv11"
  param {
    lr_mult: 1
    decay_mult: 1
  }
  param {
    lr_mult: 2
    decay_mult: 0
  }
  convolution_param {
    num_output: 32
    pad: 1
    kernel_size: 3
    stride: 1
    weight_filler {
      type: "xavier"
      variance_norm: FAN_IN
    }
    bias_filler {
      type: "constant"
      value: 1
    }
  }
}
layer {
  name: "bn_conv11"
  type: "BatchNorm"
  bottom: "conv11"
  top: "conv11"
  batch_norm_param {
    use_global_stats: false
  }
}
layer {
  name: "scale_conv11"
  type: "Scale"
  bottom: "conv11"
  top: "conv11"
  scale_param {
    bias_term: true
  }
}
layer {
  name: "relu11"
  type: "ReLU"
  bottom: "conv11"
  top: "conv11"
}
layer {
  name: "conv12"
  type: "Convolution"
  bottom: "conv11"
  top: "conv12"
  param {
    lr_mult: 1
    decay_mult: 1
  }
  param {
    lr_mult: 2
    decay_mult: 0
  }
  convolution_param {
    num_output: 32
    pad: 1
    kernel_size: 3
    stride: 1
    weight_filler {
      type: "xavier"
      variance_norm: FAN_IN
    }
    bias_filler {
      type: "constant"
      value: 1
    }
  }
}
layer {
  name: "bn_conv12"
  type: "BatchNorm"
  bottom: "conv12"
  top: "conv12"
  batch_norm_param {
    use_global_stats: false
  }
}
layer {
  name: "scale_conv12"
  type: "Scale"
  bottom: "conv12"
  top: "conv12"
  scale_param {
    bias_term: true
  }
}
layer {
  name: "relu12"
  type: "ReLU"
  bottom: "conv12"
  top: "conv12"
}
layer {
  name: "conv13"
  type: "Convolution"
  bottom: "conv12"
  top: "conv13"
  param {
    lr_mult: 1
    decay_mult: 1
  }
  param {
    lr_mult: 2
    decay_mult: 0
  }
  convolution_param {
    num_output: 32
    pad: 1
    kernel_size: 3
    stride: 1
    weight_filler {
      type: "xavier"
      variance_norm: FAN_IN
    }
    bias_filler {
      type: "constant"
      value: 1
    }
  }
}
layer {
  name: "bn_conv13"
  type: "BatchNorm"
  bottom: "conv13"
  top: "conv13"
  batch_norm_param {
    use_global_stats: false
  }
}
layer {
  name: "scale_conv13"
  type: "Scale"
  bottom: "conv13"
  top: "conv13"
  scale_param {
    bias_term: true
  }
}
layer {
  name: "relu13"
  type: "ReLU"
  bottom: "conv13"
  top: "conv13"
}
layer {
  name: "conv14"
  type: "Convolution"
  bottom: "conv13"
  top: "conv14"
  param {
    lr_mult: 1
    decay_mult: 1
  }
  param {
    lr_mult: 2
    decay_mult: 0
  }
  convolution_param {
    num_output: 32
    pad: 1
    kernel_size: 3
    stride: 1
    weight_filler {
      type: "xavier"
      variance_norm: FAN_IN
    }
    bias_filler {
      type: "constant"
      value: 1
    }
  }
}
layer {
  name: "bn_conv14"
  type: "BatchNorm"
  bottom: "conv14"
  top: "conv14"
  batch_norm_param {
    use_global_stats: false
  }
}
layer {
  name: "scale_conv14"
  type: "Scale"
  bottom: "conv14"
  top: "conv14"
  scale_param {
    bias_term: true
  }
}
layer {
  name: "relu14"
  type: "ReLU"
  bottom: "conv14"
  top: "conv14"
}
layer {
  name: "conv15"
  type: "Convolution"
  bottom: "conv14"
  top: "conv15"
  param {
    lr_mult: 1
    decay_mult: 1
  }
  param {
    lr_mult: 2
    decay_mult: 0
  }
  convolution_param {
    num_output: 32
    pad: 1
    kernel_size: 3
    stride: 2
    weight_filler {
      type: "xavier"
      variance_norm: FAN_IN
    }
    bias_filler {
      type: "constant"
      value: 1
    }
  }
}
layer {
  name: "bn_conv15"
  type: "BatchNorm"
  bottom: "conv15"
  top: "conv15"
  batch_norm_param {
    use_global_stats: false
  }
}
layer {
  name: "scale_conv15"
  type: "Scale"
  bottom: "conv15"
  top: "conv15"
  scale_param {
    bias_term: true
  }
}
layer {
  name: "relu15"
  type: "ReLU"
  bottom: "conv15"
  top: "conv15"
}
layer {
  name: "conv16"
  type: "Convolution"
  bottom: "conv15"
  top: "conv16"
  param {
    lr_mult: 1
    decay_mult: 1
  }
  param {
    lr_mult: 2
    decay_mult: 0
  }
  convolution_param {
    num_output: 32
    pad: 1
    kernel_size: 3
    stride: 1
    weight_filler {
      type: "xavier"
      variance_norm: FAN_IN
    }
    bias_filler {
      type: "constant"
      value: 1
    }
  }
}
layer {
  name: "bn_conv16"
  type: "BatchNorm"
  bottom: "conv16"
  top: "conv16"
  batch_norm_param {
    use_global_stats: false
  }
}
layer {
  name: "scale_conv16"
  type: "Scale"
  bottom: "conv16"
  top: "conv16"
  scale_param {
    bias_term: true
  }
}
layer {
  name: "relu16"
  type: "ReLU"
  bottom: "conv16"
  top: "conv16"
}
layer {
  name: "conv17"
  type: "Convolution"
  bottom: "conv16"
  top: "conv17"
  param {
    lr_mult: 1
    decay_mult: 1
  }
  param {
    lr_mult: 2
    decay_mult: 0
  }
  convolution_param {
    num_output: 32
    pad: 1
    kernel_size: 3
    stride: 1
    weight_filler {
      type: "xavier"
      variance_norm: FAN_IN
    }
    bias_filler {
      type: "constant"
      value: 1
    }
  }
}
layer {
  name: "bn_conv17"
  type: "BatchNorm"
  bottom: "conv17"
  top: "conv17"
  batch_norm_param {
    use_global_stats: false
  }
}
layer {
  name: "scale_conv17"
  type: "Scale"
  bottom: "conv17"
  top: "conv17"
  scale_param {
    bias_term: true
  }
}
layer {
  name: "relu17"
  type: "ReLU"
  bottom: "conv17"
  top: "conv17"
}
layer {
  name: "conv18"
  type: "Convolution"
  bottom: "conv17"
  top: "conv18"
  param {
    lr_mult: 1
    decay_mult: 1
  }
  param {
    lr_mult: 2
    decay_mult: 0
  }
  convolution_param {
    num_output: 32
    pad: 1
    kernel_size: 3
    stride: 1
    weight_filler {
      type: "xavier"
      variance_norm: FAN_IN
    }
    bias_filler {
      type: "constant"
      value: 1
    }
  }
}
layer {
  name: "bn_conv17"
  type: "BatchNorm"
  bottom: "conv18"
  top: "conv18"
  batch_norm_param {
    use_global_stats: false
  }
}
layer {
  name: "scale_conv18"
  type: "Scale"
  bottom: "conv18"
  top: "conv18"
  scale_param {
    bias_term: true
  }
}
layer {
  name: "relu18"
  type: "ReLU"
  bottom: "conv18"
  top: "conv18"
}
layer {
  name: "conv19"
  type: "Convolution"
  bottom: "conv18"
  top: "conv19"
  param {
    lr_mult: 1
    decay_mult: 1
  }
  param {
    lr_mult: 2
    decay_mult: 0
  }
  convolution_param {
    num_output: 32
    pad: 1
    kernel_size: 3
    stride: 1
    weight_filler {
      type: "xavier"
      variance_norm: FAN_IN
    }
    bias_filler {
      type: "constant"
      value: 1
    }
  }
}
layer {
  name: "bn_conv19"
  type: "BatchNorm"
  bottom: "conv19"
  top: "conv19"
  batch_norm_param {
    use_global_stats: false
  }
}
layer {
  name: "scale_conv19"
  type: "Scale"
  bottom: "conv19"
  top: "conv19"
  scale_param {
    bias_term: true
  }
}
layer {
  name: "relu19"
  type: "ReLU"
  bottom: "conv19"
  top: "conv19"
}
layer {
  name: "conv20"
  type: "Convolution"
  bottom: "conv19"
  top: "conv20"
  param {
    lr_mult: 1
    decay_mult: 1
  }
  param {
    lr_mult: 2
    decay_mult: 0
  }
  convolution_param {
    num_output: 32
    pad: 1
    kernel_size: 3
    stride: 1
    weight_filler {
      type: "xavier"
      variance_norm: FAN_IN
    }
    bias_filler {
      type: "constant"
      value: 1
    }
  }
}
layer {
  name: "bn_conv20"
  type: "BatchNorm"
  bottom: "conv20"
  top: "conv20"
  batch_norm_param {
    use_global_stats: false
  }
}
layer {
  name: "scale_conv20"
  type: "Scale"
  bottom: "conv20"
  top: "conv20"
  scale_param {
    bias_term: true
  }
}
layer {
  name: "relu20"
  type: "ReLU"
  bottom: "conv20"
  top: "conv20"
}
layer {
  name: "pool21"
  type: "Pooling"
  bottom: "conv20"
  top: "pool21"
  pooling_param {
    pool: AVE
    global_pooling: true
  }
}
layer {
  name: "fc22"
  type: "InnerProduct"
  bottom: "pool21"
  top: "fc22"
  param {
    lr_mult: 1
    decay_mult: 1
  }
  param {
    lr_mult: 2
    decay_mult: 0
  }
  inner_product_param {
    num_output: 10
    weight_filler {
      type: "xavier"
      variance_norm: FAN_IN
    }
    bias_filler {
      type: "constant"
      value: 0
    }
  }
}
layer {
  name: "accuracy"
  type: "Accuracy"
  bottom: "fc22"
  bottom: "label"
  top: "accuracy"
  include {
    phase: TEST
  }
}
layer {
  name: "loss"
  type: "SoftmaxWithLoss"
  bottom: "fc22"
  bottom: "label"
  top: "loss"
}
I0428 17:38:40.262751  7412 layer_factory.hpp:77] Creating layer data
I0428 17:38:40.263751  7412 db_lmdb.cpp:40] Opened lmdb D:/_test/train/img_test_lmdb
I0428 17:38:40.263751  7412 net.cpp:84] Creating Layer data
I0428 17:38:40.264751  7412 net.cpp:380] data -> data
I0428 17:38:40.264751  7412 net.cpp:380] data -> label
I0428 17:38:40.264751  7412 data_layer.cpp:45] output data size: 100,3,32,32
I0428 17:38:40.268752  7412 net.cpp:122] Setting up data
I0428 17:38:40.269752  7412 net.cpp:129] Top shape: 100 3 32 32 (307200)
I0428 17:38:40.269752  7412 net.cpp:129] Top shape: 100 (100)
I0428 17:38:40.269752  7412 net.cpp:137] Memory required for data: 1229200
I0428 17:38:40.269752  7412 layer_factory.hpp:77] Creating layer label_data_1_split
I0428 17:38:40.270752  7412 net.cpp:84] Creating Layer label_data_1_split
I0428 17:38:40.270752  7412 net.cpp:406] label_data_1_split <- label
I0428 17:38:40.270752  7412 net.cpp:380] label_data_1_split -> label_data_1_split_0
I0428 17:38:40.270752  7412 net.cpp:380] label_data_1_split -> label_data_1_split_1
I0428 17:38:40.270752  7412 net.cpp:122] Setting up label_data_1_split
I0428 17:38:40.271752  7412 net.cpp:129] Top shape: 100 (100)
I0428 17:38:40.271752  7412 net.cpp:129] Top shape: 100 (100)
I0428 17:38:40.271752  7412 net.cpp:137] Memory required for data: 1230000
I0428 17:38:40.271752  7412 layer_factory.hpp:77] Creating layer conv1
I0428 17:38:40.271752  7412 net.cpp:84] Creating Layer conv1
I0428 17:38:40.271752  7412 net.cpp:406] conv1 <- data
I0428 17:38:40.271752  7412 net.cpp:380] conv1 -> conv1
I0428 17:38:40.271752  7412 net.cpp:122] Setting up conv1
I0428 17:38:40.272753  7412 net.cpp:129] Top shape: 100 16 32 32 (1638400)
I0428 17:38:40.272753  7412 net.cpp:137] Memory required for data: 7783600
I0428 17:38:40.272753  7412 layer_factory.hpp:77] Creating layer bn_conv1
I0428 17:38:40.272753  7412 net.cpp:84] Creating Layer bn_conv1
I0428 17:38:40.272753  7412 net.cpp:406] bn_conv1 <- conv1
I0428 17:38:40.272753  7412 net.cpp:367] bn_conv1 -> conv1 (in-place)
I0428 17:38:40.272753  7412 net.cpp:122] Setting up bn_conv1
I0428 17:38:40.272753  7412 net.cpp:129] Top shape: 100 16 32 32 (1638400)
I0428 17:38:40.273752  7412 net.cpp:137] Memory required for data: 14337200
I0428 17:38:40.273752  7412 layer_factory.hpp:77] Creating layer scale_conv1
I0428 17:38:40.273752  7412 net.cpp:84] Creating Layer scale_conv1
I0428 17:38:40.273752  7412 net.cpp:406] scale_conv1 <- conv1
I0428 17:38:40.273752  7412 net.cpp:367] scale_conv1 -> conv1 (in-place)
I0428 17:38:40.273752  7412 layer_factory.hpp:77] Creating layer scale_conv1
I0428 17:38:40.273752  7412 net.cpp:122] Setting up scale_conv1
I0428 17:38:40.273752  7412 net.cpp:129] Top shape: 100 16 32 32 (1638400)
I0428 17:38:40.273752  7412 net.cpp:137] Memory required for data: 20890800
I0428 17:38:40.273752  7412 layer_factory.hpp:77] Creating layer relu1
I0428 17:38:40.274752  7412 net.cpp:84] Creating Layer relu1
I0428 17:38:40.274752  7412 net.cpp:406] relu1 <- conv1
I0428 17:38:40.274752  7412 net.cpp:367] relu1 -> conv1 (in-place)
I0428 17:38:40.274752  7412 net.cpp:122] Setting up relu1
I0428 17:38:40.274752  7412 net.cpp:129] Top shape: 100 16 32 32 (1638400)
I0428 17:38:40.274752  7412 net.cpp:137] Memory required for data: 27444400
I0428 17:38:40.274752  7412 layer_factory.hpp:77] Creating layer conv2
I0428 17:38:40.274752  7412 net.cpp:84] Creating Layer conv2
I0428 17:38:40.274752  7412 net.cpp:406] conv2 <- conv1
I0428 17:38:40.274752  7412 net.cpp:380] conv2 -> conv2
I0428 17:38:40.275753  7412 net.cpp:122] Setting up conv2
I0428 17:38:40.275753  7412 net.cpp:129] Top shape: 100 16 32 32 (1638400)
I0428 17:38:40.275753  7412 net.cpp:137] Memory required for data: 33998000
I0428 17:38:40.275753  7412 layer_factory.hpp:77] Creating layer bn_conv2
I0428 17:38:40.275753  7412 net.cpp:84] Creating Layer bn_conv2
I0428 17:38:40.275753  7412 net.cpp:406] bn_conv2 <- conv2
I0428 17:38:40.275753  7412 net.cpp:367] bn_conv2 -> conv2 (in-place)
I0428 17:38:40.276752  7412 net.cpp:122] Setting up bn_conv2
I0428 17:38:40.276752  7412 net.cpp:129] Top shape: 100 16 32 32 (1638400)
I0428 17:38:40.276752  7412 net.cpp:137] Memory required for data: 40551600
I0428 17:38:40.276752  7412 layer_factory.hpp:77] Creating layer scale_conv2
I0428 17:38:40.276752  7412 net.cpp:84] Creating Layer scale_conv2
I0428 17:38:40.276752  7412 net.cpp:406] scale_conv2 <- conv2
I0428 17:38:40.276752  7412 net.cpp:367] scale_conv2 -> conv2 (in-place)
I0428 17:38:40.276752  7412 layer_factory.hpp:77] Creating layer scale_conv2
I0428 17:38:40.276752  7412 net.cpp:122] Setting up scale_conv2
I0428 17:38:40.277752  7412 net.cpp:129] Top shape: 100 16 32 32 (1638400)
I0428 17:38:40.277752  7412 net.cpp:137] Memory required for data: 47105200
I0428 17:38:40.277752  7412 layer_factory.hpp:77] Creating layer relu2
I0428 17:38:40.277752  7412 net.cpp:84] Creating Layer relu2
I0428 17:38:40.277752  7412 net.cpp:406] relu2 <- conv2
I0428 17:38:40.277752  7412 net.cpp:367] relu2 -> conv2 (in-place)
I0428 17:38:40.277752  7412 net.cpp:122] Setting up relu2
I0428 17:38:40.277752  7412 net.cpp:129] Top shape: 100 16 32 32 (1638400)
I0428 17:38:40.277752  7412 net.cpp:137] Memory required for data: 53658800
I0428 17:38:40.277752  7412 layer_factory.hpp:77] Creating layer conv3
I0428 17:38:40.278753  7412 net.cpp:84] Creating Layer conv3
I0428 17:38:40.278753  7412 net.cpp:406] conv3 <- conv2
I0428 17:38:40.278753  7412 net.cpp:380] conv3 -> conv3
I0428 17:38:40.278753  7412 net.cpp:122] Setting up conv3
I0428 17:38:40.278753  7412 net.cpp:129] Top shape: 100 16 32 32 (1638400)
I0428 17:38:40.278753  7412 net.cpp:137] Memory required for data: 60212400
I0428 17:38:40.278753  7412 layer_factory.hpp:77] Creating layer bn_conv3
I0428 17:38:40.278753  7412 net.cpp:84] Creating Layer bn_conv3
I0428 17:38:40.278753  7412 net.cpp:406] bn_conv3 <- conv3
I0428 17:38:40.279752  7412 net.cpp:367] bn_conv3 -> conv3 (in-place)
I0428 17:38:40.279752  7412 net.cpp:122] Setting up bn_conv3
I0428 17:38:40.279752  7412 net.cpp:129] Top shape: 100 16 32 32 (1638400)
I0428 17:38:40.279752  7412 net.cpp:137] Memory required for data: 66766000
I0428 17:38:40.279752  7412 layer_factory.hpp:77] Creating layer scale_conv3
I0428 17:38:40.279752  7412 net.cpp:84] Creating Layer scale_conv3
I0428 17:38:40.279752  7412 net.cpp:406] scale_conv3 <- conv3
I0428 17:38:40.279752  7412 net.cpp:367] scale_conv3 -> conv3 (in-place)
I0428 17:38:40.279752  7412 layer_factory.hpp:77] Creating layer scale_conv3
I0428 17:38:40.280752  7412 net.cpp:122] Setting up scale_conv3
I0428 17:38:40.280752  7412 net.cpp:129] Top shape: 100 16 32 32 (1638400)
I0428 17:38:40.280752  7412 net.cpp:137] Memory required for data: 73319600
I0428 17:38:40.280752  7412 layer_factory.hpp:77] Creating layer relu3
I0428 17:38:40.280752  7412 net.cpp:84] Creating Layer relu3
I0428 17:38:40.280752  7412 net.cpp:406] relu3 <- conv3
I0428 17:38:40.280752  7412 net.cpp:367] relu3 -> conv3 (in-place)
I0428 17:38:40.281752  7412 net.cpp:122] Setting up relu3
I0428 17:38:40.281752  7412 net.cpp:129] Top shape: 100 16 32 32 (1638400)
I0428 17:38:40.281752  7412 net.cpp:137] Memory required for data: 79873200
I0428 17:38:40.281752  7412 layer_factory.hpp:77] Creating layer conv4
I0428 17:38:40.281752  7412 net.cpp:84] Creating Layer conv4
I0428 17:38:40.281752  7412 net.cpp:406] conv4 <- conv3
I0428 17:38:40.281752  7412 net.cpp:380] conv4 -> conv4
I0428 17:38:40.281752  7412 net.cpp:122] Setting up conv4
I0428 17:38:40.281752  7412 net.cpp:129] Top shape: 100 16 32 32 (1638400)
I0428 17:38:40.282752  7412 net.cpp:137] Memory required for data: 86426800
I0428 17:38:40.282752  7412 layer_factory.hpp:77] Creating layer bn_conv4
I0428 17:38:40.282752  7412 net.cpp:84] Creating Layer bn_conv4
I0428 17:38:40.282752  7412 net.cpp:406] bn_conv4 <- conv4
I0428 17:38:40.282752  7412 net.cpp:367] bn_conv4 -> conv4 (in-place)
I0428 17:38:40.282752  7412 net.cpp:122] Setting up bn_conv4
I0428 17:38:40.282752  7412 net.cpp:129] Top shape: 100 16 32 32 (1638400)
I0428 17:38:40.282752  7412 net.cpp:137] Memory required for data: 92980400
I0428 17:38:40.282752  7412 layer_factory.hpp:77] Creating layer scale_conv4
I0428 17:38:40.283753  7412 net.cpp:84] Creating Layer scale_conv4
I0428 17:38:40.283753  7412 net.cpp:406] scale_conv4 <- conv4
I0428 17:38:40.283753  7412 net.cpp:367] scale_conv4 -> conv4 (in-place)
I0428 17:38:40.283753  7412 layer_factory.hpp:77] Creating layer scale_conv4
I0428 17:38:40.283753  7412 net.cpp:122] Setting up scale_conv4
I0428 17:38:40.283753  7412 net.cpp:129] Top shape: 100 16 32 32 (1638400)
I0428 17:38:40.283753  7412 net.cpp:137] Memory required for data: 99534000
I0428 17:38:40.283753  7412 layer_factory.hpp:77] Creating layer relu4
I0428 17:38:40.283753  7412 net.cpp:84] Creating Layer relu4
I0428 17:38:40.283753  7412 net.cpp:406] relu4 <- conv4
I0428 17:38:40.284754  7412 net.cpp:367] relu4 -> conv4 (in-place)
I0428 17:38:40.284754  7412 net.cpp:122] Setting up relu4
I0428 17:38:40.284754  7412 net.cpp:129] Top shape: 100 16 32 32 (1638400)
I0428 17:38:40.284754  7412 net.cpp:137] Memory required for data: 106087600
I0428 17:38:40.284754  7412 layer_factory.hpp:77] Creating layer conv5
I0428 17:38:40.284754  7412 net.cpp:84] Creating Layer conv5
I0428 17:38:40.284754  7412 net.cpp:406] conv5 <- conv4
I0428 17:38:40.284754  7412 net.cpp:380] conv5 -> conv5
I0428 17:38:40.284754  7412 net.cpp:122] Setting up conv5
I0428 17:38:40.285753  7412 net.cpp:129] Top shape: 100 16 16 16 (409600)
I0428 17:38:40.285753  7412 net.cpp:137] Memory required for data: 107726000
I0428 17:38:40.285753  7412 layer_factory.hpp:77] Creating layer bn_conv5
I0428 17:38:40.285753  7412 net.cpp:84] Creating Layer bn_conv5
I0428 17:38:40.285753  7412 net.cpp:406] bn_conv5 <- conv5
I0428 17:38:40.285753  7412 net.cpp:367] bn_conv5 -> conv5 (in-place)
I0428 17:38:40.285753  7412 net.cpp:122] Setting up bn_conv5
I0428 17:38:40.285753  7412 net.cpp:129] Top shape: 100 16 16 16 (409600)
I0428 17:38:40.285753  7412 net.cpp:137] Memory required for data: 109364400
I0428 17:38:40.286753  7412 layer_factory.hpp:77] Creating layer scale_conv5
I0428 17:38:40.286753  7412 net.cpp:84] Creating Layer scale_conv5
I0428 17:38:40.286753  7412 net.cpp:406] scale_conv5 <- conv5
I0428 17:38:40.286753  7412 net.cpp:367] scale_conv5 -> conv5 (in-place)
I0428 17:38:40.286753  7412 layer_factory.hpp:77] Creating layer scale_conv5
I0428 17:38:40.286753  7412 net.cpp:122] Setting up scale_conv5
I0428 17:38:40.286753  7412 net.cpp:129] Top shape: 100 16 16 16 (409600)
I0428 17:38:40.286753  7412 net.cpp:137] Memory required for data: 111002800
I0428 17:38:40.286753  7412 layer_factory.hpp:77] Creating layer relu5
I0428 17:38:40.286753  7412 net.cpp:84] Creating Layer relu5
I0428 17:38:40.287753  7412 net.cpp:406] relu5 <- conv5
I0428 17:38:40.287753  7412 net.cpp:367] relu5 -> conv5 (in-place)
I0428 17:38:40.287753  7412 net.cpp:122] Setting up relu5
I0428 17:38:40.287753  7412 net.cpp:129] Top shape: 100 16 16 16 (409600)
I0428 17:38:40.287753  7412 net.cpp:137] Memory required for data: 112641200
I0428 17:38:40.287753  7412 layer_factory.hpp:77] Creating layer conv6
I0428 17:38:40.287753  7412 net.cpp:84] Creating Layer conv6
I0428 17:38:40.287753  7412 net.cpp:406] conv6 <- conv5
I0428 17:38:40.287753  7412 net.cpp:380] conv6 -> conv6
I0428 17:38:40.288753  7412 net.cpp:122] Setting up conv6
I0428 17:38:40.288753  7412 net.cpp:129] Top shape: 100 32 16 16 (819200)
I0428 17:38:40.288753  7412 net.cpp:137] Memory required for data: 115918000
I0428 17:38:40.288753  7412 layer_factory.hpp:77] Creating layer bn_conv6
I0428 17:38:40.288753  7412 net.cpp:84] Creating Layer bn_conv6
I0428 17:38:40.288753  7412 net.cpp:406] bn_conv6 <- conv6
I0428 17:38:40.288753  7412 net.cpp:367] bn_conv6 -> conv6 (in-place)
I0428 17:38:40.288753  7412 net.cpp:122] Setting up bn_conv6
I0428 17:38:40.288753  7412 net.cpp:129] Top shape: 100 32 16 16 (819200)
I0428 17:38:40.289753  7412 net.cpp:137] Memory required for data: 119194800
I0428 17:38:40.289753  7412 layer_factory.hpp:77] Creating layer scale_conv6
I0428 17:38:40.289753  7412 net.cpp:84] Creating Layer scale_conv6
I0428 17:38:40.289753  7412 net.cpp:406] scale_conv6 <- conv6
I0428 17:38:40.289753  7412 net.cpp:367] scale_conv6 -> conv6 (in-place)
I0428 17:38:40.289753  7412 layer_factory.hpp:77] Creating layer scale_conv6
I0428 17:38:40.289753  7412 net.cpp:122] Setting up scale_conv6
I0428 17:38:40.289753  7412 net.cpp:129] Top shape: 100 32 16 16 (819200)
I0428 17:38:40.289753  7412 net.cpp:137] Memory required for data: 122471600
I0428 17:38:40.289753  7412 layer_factory.hpp:77] Creating layer relu6
I0428 17:38:40.290753  7412 net.cpp:84] Creating Layer relu6
I0428 17:38:40.290753  7412 net.cpp:406] relu6 <- conv6
I0428 17:38:40.290753  7412 net.cpp:367] relu6 -> conv6 (in-place)
I0428 17:38:40.290753  7412 net.cpp:122] Setting up relu6
I0428 17:38:40.290753  7412 net.cpp:129] Top shape: 100 32 16 16 (819200)
I0428 17:38:40.290753  7412 net.cpp:137] Memory required for data: 125748400
I0428 17:38:40.290753  7412 layer_factory.hpp:77] Creating layer conv7
I0428 17:38:40.290753  7412 net.cpp:84] Creating Layer conv7
I0428 17:38:40.290753  7412 net.cpp:406] conv7 <- conv6
I0428 17:38:40.290753  7412 net.cpp:380] conv7 -> conv7
I0428 17:38:40.291754  7412 net.cpp:122] Setting up conv7
I0428 17:38:40.291754  7412 net.cpp:129] Top shape: 100 32 16 16 (819200)
I0428 17:38:40.291754  7412 net.cpp:137] Memory required for data: 129025200
I0428 17:38:40.291754  7412 layer_factory.hpp:77] Creating layer bn_conv7
I0428 17:38:40.291754  7412 net.cpp:84] Creating Layer bn_conv7
I0428 17:38:40.291754  7412 net.cpp:406] bn_conv7 <- conv7
I0428 17:38:40.291754  7412 net.cpp:367] bn_conv7 -> conv7 (in-place)
I0428 17:38:40.291754  7412 net.cpp:122] Setting up bn_conv7
I0428 17:38:40.292753  7412 net.cpp:129] Top shape: 100 32 16 16 (819200)
I0428 17:38:40.292753  7412 net.cpp:137] Memory required for data: 132302000
I0428 17:38:40.292753  7412 layer_factory.hpp:77] Creating layer scale_conv7
I0428 17:38:40.292753  7412 net.cpp:84] Creating Layer scale_conv7
I0428 17:38:40.292753  7412 net.cpp:406] scale_conv7 <- conv7
I0428 17:38:40.292753  7412 net.cpp:367] scale_conv7 -> conv7 (in-place)
I0428 17:38:40.292753  7412 layer_factory.hpp:77] Creating layer scale_conv7
I0428 17:38:40.292753  7412 net.cpp:122] Setting up scale_conv7
I0428 17:38:40.292753  7412 net.cpp:129] Top shape: 100 32 16 16 (819200)
I0428 17:38:40.293753  7412 net.cpp:137] Memory required for data: 135578800
I0428 17:38:40.293753  7412 layer_factory.hpp:77] Creating layer relu7
I0428 17:38:40.293753  7412 net.cpp:84] Creating Layer relu7
I0428 17:38:40.293753  7412 net.cpp:406] relu7 <- conv7
I0428 17:38:40.293753  7412 net.cpp:367] relu7 -> conv7 (in-place)
I0428 17:38:40.293753  7412 net.cpp:122] Setting up relu7
I0428 17:38:40.293753  7412 net.cpp:129] Top shape: 100 32 16 16 (819200)
I0428 17:38:40.293753  7412 net.cpp:137] Memory required for data: 138855600
I0428 17:38:40.293753  7412 layer_factory.hpp:77] Creating layer conv8
I0428 17:38:40.293753  7412 net.cpp:84] Creating Layer conv8
I0428 17:38:40.293753  7412 net.cpp:406] conv8 <- conv7
I0428 17:38:40.294754  7412 net.cpp:380] conv8 -> conv8
I0428 17:38:40.294754  7412 net.cpp:122] Setting up conv8
I0428 17:38:40.294754  7412 net.cpp:129] Top shape: 100 32 16 16 (819200)
I0428 17:38:40.294754  7412 net.cpp:137] Memory required for data: 142132400
I0428 17:38:40.294754  7412 layer_factory.hpp:77] Creating layer bn_conv8
I0428 17:38:40.294754  7412 net.cpp:84] Creating Layer bn_conv8
I0428 17:38:40.294754  7412 net.cpp:406] bn_conv8 <- conv8
I0428 17:38:40.294754  7412 net.cpp:367] bn_conv8 -> conv8 (in-place)
I0428 17:38:40.295753  7412 net.cpp:122] Setting up bn_conv8
I0428 17:38:40.295753  7412 net.cpp:129] Top shape: 100 32 16 16 (819200)
I0428 17:38:40.295753  7412 net.cpp:137] Memory required for data: 145409200
I0428 17:38:40.295753  7412 layer_factory.hpp:77] Creating layer scale_conv8
I0428 17:38:40.295753  7412 net.cpp:84] Creating Layer scale_conv8
I0428 17:38:40.295753  7412 net.cpp:406] scale_conv8 <- conv8
I0428 17:38:40.295753  7412 net.cpp:367] scale_conv8 -> conv8 (in-place)
I0428 17:38:40.296753  7412 layer_factory.hpp:77] Creating layer scale_conv8
I0428 17:38:40.296753  7412 net.cpp:122] Setting up scale_conv8
I0428 17:38:40.296753  7412 net.cpp:129] Top shape: 100 32 16 16 (819200)
I0428 17:38:40.296753  7412 net.cpp:137] Memory required for data: 148686000
I0428 17:38:40.296753  7412 layer_factory.hpp:77] Creating layer relu8
I0428 17:38:40.296753  7412 net.cpp:84] Creating Layer relu8
I0428 17:38:40.296753  7412 net.cpp:406] relu8 <- conv8
I0428 17:38:40.296753  7412 net.cpp:367] relu8 -> conv8 (in-place)
I0428 17:38:40.296753  7412 net.cpp:122] Setting up relu8
I0428 17:38:40.297754  7412 net.cpp:129] Top shape: 100 32 16 16 (819200)
I0428 17:38:40.297754  7412 net.cpp:137] Memory required for data: 151962800
I0428 17:38:40.297754  7412 layer_factory.hpp:77] Creating layer conv9
I0428 17:38:40.297754  7412 net.cpp:84] Creating Layer conv9
I0428 17:38:40.297754  7412 net.cpp:406] conv9 <- conv8
I0428 17:38:40.297754  7412 net.cpp:380] conv9 -> conv9
I0428 17:38:40.298753  7412 net.cpp:122] Setting up conv9
I0428 17:38:40.298753  7412 net.cpp:129] Top shape: 100 32 16 16 (819200)
I0428 17:38:40.298753  7412 net.cpp:137] Memory required for data: 155239600
I0428 17:38:40.298753  7412 layer_factory.hpp:77] Creating layer bn_conv9
I0428 17:38:40.298753  7412 net.cpp:84] Creating Layer bn_conv9
I0428 17:38:40.298753  7412 net.cpp:406] bn_conv9 <- conv9
I0428 17:38:40.298753  7412 net.cpp:367] bn_conv9 -> conv9 (in-place)
I0428 17:38:40.298753  7412 net.cpp:122] Setting up bn_conv9
I0428 17:38:40.298753  7412 net.cpp:129] Top shape: 100 32 16 16 (819200)
I0428 17:38:40.299753  7412 net.cpp:137] Memory required for data: 158516400
I0428 17:38:40.299753  7412 layer_factory.hpp:77] Creating layer scale_conv9
I0428 17:38:40.299753  7412 net.cpp:84] Creating Layer scale_conv9
I0428 17:38:40.299753  7412 net.cpp:406] scale_conv9 <- conv9
I0428 17:38:40.299753  7412 net.cpp:367] scale_conv9 -> conv9 (in-place)
I0428 17:38:40.299753  7412 layer_factory.hpp:77] Creating layer scale_conv9
I0428 17:38:40.299753  7412 net.cpp:122] Setting up scale_conv9
I0428 17:38:40.299753  7412 net.cpp:129] Top shape: 100 32 16 16 (819200)
I0428 17:38:40.299753  7412 net.cpp:137] Memory required for data: 161793200
I0428 17:38:40.300753  7412 layer_factory.hpp:77] Creating layer relu9
I0428 17:38:40.300753  7412 net.cpp:84] Creating Layer relu9
I0428 17:38:40.300753  7412 net.cpp:406] relu9 <- conv9
I0428 17:38:40.300753  7412 net.cpp:367] relu9 -> conv9 (in-place)
I0428 17:38:40.300753  7412 net.cpp:122] Setting up relu9
I0428 17:38:40.300753  7412 net.cpp:129] Top shape: 100 32 16 16 (819200)
I0428 17:38:40.300753  7412 net.cpp:137] Memory required for data: 165070000
I0428 17:38:40.300753  7412 layer_factory.hpp:77] Creating layer conv10
I0428 17:38:40.300753  7412 net.cpp:84] Creating Layer conv10
I0428 17:38:40.300753  7412 net.cpp:406] conv10 <- conv9
I0428 17:38:40.301754  7412 net.cpp:380] conv10 -> conv10
I0428 17:38:40.301754  7412 net.cpp:122] Setting up conv10
I0428 17:38:40.301754  7412 net.cpp:129] Top shape: 100 32 8 8 (204800)
I0428 17:38:40.301754  7412 net.cpp:137] Memory required for data: 165889200
I0428 17:38:40.301754  7412 layer_factory.hpp:77] Creating layer bn_conv10
I0428 17:38:40.301754  7412 net.cpp:84] Creating Layer bn_conv10
I0428 17:38:40.301754  7412 net.cpp:406] bn_conv10 <- conv10
I0428 17:38:40.301754  7412 net.cpp:367] bn_conv10 -> conv10 (in-place)
I0428 17:38:40.302754  7412 net.cpp:122] Setting up bn_conv10
I0428 17:38:40.302754  7412 net.cpp:129] Top shape: 100 32 8 8 (204800)
I0428 17:38:40.302754  7412 net.cpp:137] Memory required for data: 166708400
I0428 17:38:40.302754  7412 layer_factory.hpp:77] Creating layer scale_conv10
I0428 17:38:40.302754  7412 net.cpp:84] Creating Layer scale_conv10
I0428 17:38:40.302754  7412 net.cpp:406] scale_conv10 <- conv10
I0428 17:38:40.302754  7412 net.cpp:367] scale_conv10 -> conv10 (in-place)
I0428 17:38:40.303755  7412 layer_factory.hpp:77] Creating layer scale_conv10
I0428 17:38:40.303755  7412 net.cpp:122] Setting up scale_conv10
I0428 17:38:40.303755  7412 net.cpp:129] Top shape: 100 32 8 8 (204800)
I0428 17:38:40.303755  7412 net.cpp:137] Memory required for data: 167527600
I0428 17:38:40.303755  7412 layer_factory.hpp:77] Creating layer relu10
I0428 17:38:40.303755  7412 net.cpp:84] Creating Layer relu10
I0428 17:38:40.303755  7412 net.cpp:406] relu10 <- conv10
I0428 17:38:40.303755  7412 net.cpp:367] relu10 -> conv10 (in-place)
I0428 17:38:40.303755  7412 net.cpp:122] Setting up relu10
I0428 17:38:40.303755  7412 net.cpp:129] Top shape: 100 32 8 8 (204800)
I0428 17:38:40.304754  7412 net.cpp:137] Memory required for data: 168346800
I0428 17:38:40.304754  7412 layer_factory.hpp:77] Creating layer conv11
I0428 17:38:40.304754  7412 net.cpp:84] Creating Layer conv11
I0428 17:38:40.304754  7412 net.cpp:406] conv11 <- conv10
I0428 17:38:40.304754  7412 net.cpp:380] conv11 -> conv11
I0428 17:38:40.304754  7412 net.cpp:122] Setting up conv11
I0428 17:38:40.304754  7412 net.cpp:129] Top shape: 100 32 8 8 (204800)
I0428 17:38:40.304754  7412 net.cpp:137] Memory required for data: 169166000
I0428 17:38:40.305754  7412 layer_factory.hpp:77] Creating layer bn_conv11
I0428 17:38:40.305754  7412 net.cpp:84] Creating Layer bn_conv11
I0428 17:38:40.305754  7412 net.cpp:406] bn_conv11 <- conv11
I0428 17:38:40.305754  7412 net.cpp:367] bn_conv11 -> conv11 (in-place)
I0428 17:38:40.305754  7412 net.cpp:122] Setting up bn_conv11
I0428 17:38:40.305754  7412 net.cpp:129] Top shape: 100 32 8 8 (204800)
I0428 17:38:40.305754  7412 net.cpp:137] Memory required for data: 169985200
I0428 17:38:40.305754  7412 layer_factory.hpp:77] Creating layer scale_conv11
I0428 17:38:40.305754  7412 net.cpp:84] Creating Layer scale_conv11
I0428 17:38:40.305754  7412 net.cpp:406] scale_conv11 <- conv11
I0428 17:38:40.306754  7412 net.cpp:367] scale_conv11 -> conv11 (in-place)
I0428 17:38:40.306754  7412 layer_factory.hpp:77] Creating layer scale_conv11
I0428 17:38:40.306754  7412 net.cpp:122] Setting up scale_conv11
I0428 17:38:40.306754  7412 net.cpp:129] Top shape: 100 32 8 8 (204800)
I0428 17:38:40.306754  7412 net.cpp:137] Memory required for data: 170804400
I0428 17:38:40.306754  7412 layer_factory.hpp:77] Creating layer relu11
I0428 17:38:40.306754  7412 net.cpp:84] Creating Layer relu11
I0428 17:38:40.306754  7412 net.cpp:406] relu11 <- conv11
I0428 17:38:40.306754  7412 net.cpp:367] relu11 -> conv11 (in-place)
I0428 17:38:40.306754  7412 net.cpp:122] Setting up relu11
I0428 17:38:40.307754  7412 net.cpp:129] Top shape: 100 32 8 8 (204800)
I0428 17:38:40.307754  7412 net.cpp:137] Memory required for data: 171623600
I0428 17:38:40.307754  7412 layer_factory.hpp:77] Creating layer conv12
I0428 17:38:40.307754  7412 net.cpp:84] Creating Layer conv12
I0428 17:38:40.307754  7412 net.cpp:406] conv12 <- conv11
I0428 17:38:40.307754  7412 net.cpp:380] conv12 -> conv12
I0428 17:38:40.307754  7412 net.cpp:122] Setting up conv12
I0428 17:38:40.307754  7412 net.cpp:129] Top shape: 100 32 8 8 (204800)
I0428 17:38:40.308754  7412 net.cpp:137] Memory required for data: 172442800
I0428 17:38:40.308754  7412 layer_factory.hpp:77] Creating layer bn_conv12
I0428 17:38:40.308754  7412 net.cpp:84] Creating Layer bn_conv12
I0428 17:38:40.308754  7412 net.cpp:406] bn_conv12 <- conv12
I0428 17:38:40.308754  7412 net.cpp:367] bn_conv12 -> conv12 (in-place)
I0428 17:38:40.308754  7412 net.cpp:122] Setting up bn_conv12
I0428 17:38:40.308754  7412 net.cpp:129] Top shape: 100 32 8 8 (204800)
I0428 17:38:40.308754  7412 net.cpp:137] Memory required for data: 173262000
I0428 17:38:40.308754  7412 layer_factory.hpp:77] Creating layer scale_conv12
I0428 17:38:40.308754  7412 net.cpp:84] Creating Layer scale_conv12
I0428 17:38:40.309754  7412 net.cpp:406] scale_conv12 <- conv12
I0428 17:38:40.309754  7412 net.cpp:367] scale_conv12 -> conv12 (in-place)
I0428 17:38:40.309754  7412 layer_factory.hpp:77] Creating layer scale_conv12
I0428 17:38:40.309754  7412 net.cpp:122] Setting up scale_conv12
I0428 17:38:40.309754  7412 net.cpp:129] Top shape: 100 32 8 8 (204800)
I0428 17:38:40.309754  7412 net.cpp:137] Memory required for data: 174081200
I0428 17:38:40.309754  7412 layer_factory.hpp:77] Creating layer relu12
I0428 17:38:40.309754  7412 net.cpp:84] Creating Layer relu12
I0428 17:38:40.309754  7412 net.cpp:406] relu12 <- conv12
I0428 17:38:40.310755  7412 net.cpp:367] relu12 -> conv12 (in-place)
I0428 17:38:40.310755  7412 net.cpp:122] Setting up relu12
I0428 17:38:40.310755  7412 net.cpp:129] Top shape: 100 32 8 8 (204800)
I0428 17:38:40.310755  7412 net.cpp:137] Memory required for data: 174900400
I0428 17:38:40.310755  7412 layer_factory.hpp:77] Creating layer conv13
I0428 17:38:40.310755  7412 net.cpp:84] Creating Layer conv13
I0428 17:38:40.310755  7412 net.cpp:406] conv13 <- conv12
I0428 17:38:40.310755  7412 net.cpp:380] conv13 -> conv13
I0428 17:38:40.311754  7412 net.cpp:122] Setting up conv13
I0428 17:38:40.311754  7412 net.cpp:129] Top shape: 100 32 8 8 (204800)
I0428 17:38:40.311754  7412 net.cpp:137] Memory required for data: 175719600
I0428 17:38:40.311754  7412 layer_factory.hpp:77] Creating layer bn_conv13
I0428 17:38:40.311754  7412 net.cpp:84] Creating Layer bn_conv13
I0428 17:38:40.311754  7412 net.cpp:406] bn_conv13 <- conv13
I0428 17:38:40.311754  7412 net.cpp:367] bn_conv13 -> conv13 (in-place)
I0428 17:38:40.311754  7412 net.cpp:122] Setting up bn_conv13
I0428 17:38:40.311754  7412 net.cpp:129] Top shape: 100 32 8 8 (204800)
I0428 17:38:40.312754  7412 net.cpp:137] Memory required for data: 176538800
I0428 17:38:40.312754  7412 layer_factory.hpp:77] Creating layer scale_conv13
I0428 17:38:40.312754  7412 net.cpp:84] Creating Layer scale_conv13
I0428 17:38:40.312754  7412 net.cpp:406] scale_conv13 <- conv13
I0428 17:38:40.312754  7412 net.cpp:367] scale_conv13 -> conv13 (in-place)
I0428 17:38:40.312754  7412 layer_factory.hpp:77] Creating layer scale_conv13
I0428 17:38:40.312754  7412 net.cpp:122] Setting up scale_conv13
I0428 17:38:40.312754  7412 net.cpp:129] Top shape: 100 32 8 8 (204800)
I0428 17:38:40.312754  7412 net.cpp:137] Memory required for data: 177358000
I0428 17:38:40.312754  7412 layer_factory.hpp:77] Creating layer relu13
I0428 17:38:40.313755  7412 net.cpp:84] Creating Layer relu13
I0428 17:38:40.313755  7412 net.cpp:406] relu13 <- conv13
I0428 17:38:40.313755  7412 net.cpp:367] relu13 -> conv13 (in-place)
I0428 17:38:40.313755  7412 net.cpp:122] Setting up relu13
I0428 17:38:40.313755  7412 net.cpp:129] Top shape: 100 32 8 8 (204800)
I0428 17:38:40.313755  7412 net.cpp:137] Memory required for data: 178177200
I0428 17:38:40.313755  7412 layer_factory.hpp:77] Creating layer conv14
I0428 17:38:40.313755  7412 net.cpp:84] Creating Layer conv14
I0428 17:38:40.313755  7412 net.cpp:406] conv14 <- conv13
I0428 17:38:40.313755  7412 net.cpp:380] conv14 -> conv14
I0428 17:38:40.314754  7412 net.cpp:122] Setting up conv14
I0428 17:38:40.314754  7412 net.cpp:129] Top shape: 100 32 8 8 (204800)
I0428 17:38:40.314754  7412 net.cpp:137] Memory required for data: 178996400
I0428 17:38:40.314754  7412 layer_factory.hpp:77] Creating layer bn_conv14
I0428 17:38:40.314754  7412 net.cpp:84] Creating Layer bn_conv14
I0428 17:38:40.314754  7412 net.cpp:406] bn_conv14 <- conv14
I0428 17:38:40.314754  7412 net.cpp:367] bn_conv14 -> conv14 (in-place)
I0428 17:38:40.314754  7412 net.cpp:122] Setting up bn_conv14
I0428 17:38:40.315754  7412 net.cpp:129] Top shape: 100 32 8 8 (204800)
I0428 17:38:40.315754  7412 net.cpp:137] Memory required for data: 179815600
I0428 17:38:40.315754  7412 layer_factory.hpp:77] Creating layer scale_conv14
I0428 17:38:40.315754  7412 net.cpp:84] Creating Layer scale_conv14
I0428 17:38:40.315754  7412 net.cpp:406] scale_conv14 <- conv14
I0428 17:38:40.315754  7412 net.cpp:367] scale_conv14 -> conv14 (in-place)
I0428 17:38:40.315754  7412 layer_factory.hpp:77] Creating layer scale_conv14
I0428 17:38:40.315754  7412 net.cpp:122] Setting up scale_conv14
I0428 17:38:40.315754  7412 net.cpp:129] Top shape: 100 32 8 8 (204800)
I0428 17:38:40.315754  7412 net.cpp:137] Memory required for data: 180634800
I0428 17:38:40.316754  7412 layer_factory.hpp:77] Creating layer relu14
I0428 17:38:40.316754  7412 net.cpp:84] Creating Layer relu14
I0428 17:38:40.316754  7412 net.cpp:406] relu14 <- conv14
I0428 17:38:40.316754  7412 net.cpp:367] relu14 -> conv14 (in-place)
I0428 17:38:40.316754  7412 net.cpp:122] Setting up relu14
I0428 17:38:40.316754  7412 net.cpp:129] Top shape: 100 32 8 8 (204800)
I0428 17:38:40.316754  7412 net.cpp:137] Memory required for data: 181454000
I0428 17:38:40.316754  7412 layer_factory.hpp:77] Creating layer conv15
I0428 17:38:40.316754  7412 net.cpp:84] Creating Layer conv15
I0428 17:38:40.316754  7412 net.cpp:406] conv15 <- conv14
I0428 17:38:40.316754  7412 net.cpp:380] conv15 -> conv15
I0428 17:38:40.317754  7412 net.cpp:122] Setting up conv15
I0428 17:38:40.317754  7412 net.cpp:129] Top shape: 100 32 4 4 (51200)
I0428 17:38:40.317754  7412 net.cpp:137] Memory required for data: 181658800
I0428 17:38:40.317754  7412 layer_factory.hpp:77] Creating layer bn_conv15
I0428 17:38:40.317754  7412 net.cpp:84] Creating Layer bn_conv15
I0428 17:38:40.317754  7412 net.cpp:406] bn_conv15 <- conv15
I0428 17:38:40.317754  7412 net.cpp:367] bn_conv15 -> conv15 (in-place)
I0428 17:38:40.317754  7412 net.cpp:122] Setting up bn_conv15
I0428 17:38:40.318755  7412 net.cpp:129] Top shape: 100 32 4 4 (51200)
I0428 17:38:40.318755  7412 net.cpp:137] Memory required for data: 181863600
I0428 17:38:40.318755  7412 layer_factory.hpp:77] Creating layer scale_conv15
I0428 17:38:40.318755  7412 net.cpp:84] Creating Layer scale_conv15
I0428 17:38:40.318755  7412 net.cpp:406] scale_conv15 <- conv15
I0428 17:38:40.318755  7412 net.cpp:367] scale_conv15 -> conv15 (in-place)
I0428 17:38:40.318755  7412 layer_factory.hpp:77] Creating layer scale_conv15
I0428 17:38:40.318755  7412 net.cpp:122] Setting up scale_conv15
I0428 17:38:40.318755  7412 net.cpp:129] Top shape: 100 32 4 4 (51200)
I0428 17:38:40.319756  7412 net.cpp:137] Memory required for data: 182068400
I0428 17:38:40.319756  7412 layer_factory.hpp:77] Creating layer relu15
I0428 17:38:40.319756  7412 net.cpp:84] Creating Layer relu15
I0428 17:38:40.319756  7412 net.cpp:406] relu15 <- conv15
I0428 17:38:40.319756  7412 net.cpp:367] relu15 -> conv15 (in-place)
I0428 17:38:40.319756  7412 net.cpp:122] Setting up relu15
I0428 17:38:40.319756  7412 net.cpp:129] Top shape: 100 32 4 4 (51200)
I0428 17:38:40.319756  7412 net.cpp:137] Memory required for data: 182273200
I0428 17:38:40.319756  7412 layer_factory.hpp:77] Creating layer conv16
I0428 17:38:40.319756  7412 net.cpp:84] Creating Layer conv16
I0428 17:38:40.319756  7412 net.cpp:406] conv16 <- conv15
I0428 17:38:40.320755  7412 net.cpp:380] conv16 -> conv16
I0428 17:38:40.320755  7412 net.cpp:122] Setting up conv16
I0428 17:38:40.320755  7412 net.cpp:129] Top shape: 100 32 4 4 (51200)
I0428 17:38:40.320755  7412 net.cpp:137] Memory required for data: 182478000
I0428 17:38:40.320755  7412 layer_factory.hpp:77] Creating layer bn_conv16
I0428 17:38:40.320755  7412 net.cpp:84] Creating Layer bn_conv16
I0428 17:38:40.320755  7412 net.cpp:406] bn_conv16 <- conv16
I0428 17:38:40.321755  7412 net.cpp:367] bn_conv16 -> conv16 (in-place)
I0428 17:38:40.321755  7412 net.cpp:122] Setting up bn_conv16
I0428 17:38:40.321755  7412 net.cpp:129] Top shape: 100 32 4 4 (51200)
I0428 17:38:40.321755  7412 net.cpp:137] Memory required for data: 182682800
I0428 17:38:40.321755  7412 layer_factory.hpp:77] Creating layer scale_conv16
I0428 17:38:40.321755  7412 net.cpp:84] Creating Layer scale_conv16
I0428 17:38:40.321755  7412 net.cpp:406] scale_conv16 <- conv16
I0428 17:38:40.321755  7412 net.cpp:367] scale_conv16 -> conv16 (in-place)
I0428 17:38:40.322755  7412 layer_factory.hpp:77] Creating layer scale_conv16
I0428 17:38:40.322755  7412 net.cpp:122] Setting up scale_conv16
I0428 17:38:40.322755  7412 net.cpp:129] Top shape: 100 32 4 4 (51200)
I0428 17:38:40.322755  7412 net.cpp:137] Memory required for data: 182887600
I0428 17:38:40.322755  7412 layer_factory.hpp:77] Creating layer relu16
I0428 17:38:40.322755  7412 net.cpp:84] Creating Layer relu16
I0428 17:38:40.322755  7412 net.cpp:406] relu16 <- conv16
I0428 17:38:40.322755  7412 net.cpp:367] relu16 -> conv16 (in-place)
I0428 17:38:40.322755  7412 net.cpp:122] Setting up relu16
I0428 17:38:40.322755  7412 net.cpp:129] Top shape: 100 32 4 4 (51200)
I0428 17:38:40.323755  7412 net.cpp:137] Memory required for data: 183092400
I0428 17:38:40.323755  7412 layer_factory.hpp:77] Creating layer conv17
I0428 17:38:40.323755  7412 net.cpp:84] Creating Layer conv17
I0428 17:38:40.323755  7412 net.cpp:406] conv17 <- conv16
I0428 17:38:40.323755  7412 net.cpp:380] conv17 -> conv17
I0428 17:38:40.323755  7412 net.cpp:122] Setting up conv17
I0428 17:38:40.323755  7412 net.cpp:129] Top shape: 100 32 4 4 (51200)
I0428 17:38:40.323755  7412 net.cpp:137] Memory required for data: 183297200
I0428 17:38:40.324755  7412 layer_factory.hpp:77] Creating layer bn_conv17
I0428 17:38:40.324755  7412 net.cpp:84] Creating Layer bn_conv17
I0428 17:38:40.324755  7412 net.cpp:406] bn_conv17 <- conv17
I0428 17:38:40.324755  7412 net.cpp:367] bn_conv17 -> conv17 (in-place)
I0428 17:38:40.324755  7412 net.cpp:122] Setting up bn_conv17
I0428 17:38:40.324755  7412 net.cpp:129] Top shape: 100 32 4 4 (51200)
I0428 17:38:40.324755  7412 net.cpp:137] Memory required for data: 183502000
I0428 17:38:40.324755  7412 layer_factory.hpp:77] Creating layer scale_conv17
I0428 17:38:40.324755  7412 net.cpp:84] Creating Layer scale_conv17
I0428 17:38:40.325755  7412 net.cpp:406] scale_conv17 <- conv17
I0428 17:38:40.325755  7412 net.cpp:367] scale_conv17 -> conv17 (in-place)
I0428 17:38:40.325755  7412 layer_factory.hpp:77] Creating layer scale_conv17
I0428 17:38:40.325755  7412 net.cpp:122] Setting up scale_conv17
I0428 17:38:40.325755  7412 net.cpp:129] Top shape: 100 32 4 4 (51200)
I0428 17:38:40.325755  7412 net.cpp:137] Memory required for data: 183706800
I0428 17:38:40.325755  7412 layer_factory.hpp:77] Creating layer relu17
I0428 17:38:40.326756  7412 net.cpp:84] Creating Layer relu17
I0428 17:38:40.326756  7412 net.cpp:406] relu17 <- conv17
I0428 17:38:40.326756  7412 net.cpp:367] relu17 -> conv17 (in-place)
I0428 17:38:40.326756  7412 net.cpp:122] Setting up relu17
I0428 17:38:40.326756  7412 net.cpp:129] Top shape: 100 32 4 4 (51200)
I0428 17:38:40.326756  7412 net.cpp:137] Memory required for data: 183911600
I0428 17:38:40.326756  7412 layer_factory.hpp:77] Creating layer conv18
I0428 17:38:40.326756  7412 net.cpp:84] Creating Layer conv18
I0428 17:38:40.326756  7412 net.cpp:406] conv18 <- conv17
I0428 17:38:40.326756  7412 net.cpp:380] conv18 -> conv18
I0428 17:38:40.327755  7412 net.cpp:122] Setting up conv18
I0428 17:38:40.327755  7412 net.cpp:129] Top shape: 100 32 4 4 (51200)
I0428 17:38:40.327755  7412 net.cpp:137] Memory required for data: 184116400
I0428 17:38:40.327755  7412 layer_factory.hpp:77] Creating layer bn_conv17
I0428 17:38:40.327755  7412 net.cpp:84] Creating Layer bn_conv17
I0428 17:38:40.327755  7412 net.cpp:406] bn_conv17 <- conv18
I0428 17:38:40.327755  7412 net.cpp:367] bn_conv17 -> conv18 (in-place)
I0428 17:38:40.327755  7412 net.cpp:122] Setting up bn_conv17
I0428 17:38:40.328755  7412 net.cpp:129] Top shape: 100 32 4 4 (51200)
I0428 17:38:40.328755  7412 net.cpp:137] Memory required for data: 184321200
I0428 17:38:40.328755  7412 layer_factory.hpp:77] Creating layer scale_conv18
I0428 17:38:40.328755  7412 net.cpp:84] Creating Layer scale_conv18
I0428 17:38:40.328755  7412 net.cpp:406] scale_conv18 <- conv18
I0428 17:38:40.328755  7412 net.cpp:367] scale_conv18 -> conv18 (in-place)
I0428 17:38:40.328755  7412 layer_factory.hpp:77] Creating layer scale_conv18
I0428 17:38:40.328755  7412 net.cpp:122] Setting up scale_conv18
I0428 17:38:40.328755  7412 net.cpp:129] Top shape: 100 32 4 4 (51200)
I0428 17:38:40.329756  7412 net.cpp:137] Memory required for data: 184526000
I0428 17:38:40.329756  7412 layer_factory.hpp:77] Creating layer relu18
I0428 17:38:40.329756  7412 net.cpp:84] Creating Layer relu18
I0428 17:38:40.329756  7412 net.cpp:406] relu18 <- conv18
I0428 17:38:40.329756  7412 net.cpp:367] relu18 -> conv18 (in-place)
I0428 17:38:40.329756  7412 net.cpp:122] Setting up relu18
I0428 17:38:40.329756  7412 net.cpp:129] Top shape: 100 32 4 4 (51200)
I0428 17:38:40.329756  7412 net.cpp:137] Memory required for data: 184730800
I0428 17:38:40.329756  7412 layer_factory.hpp:77] Creating layer conv19
I0428 17:38:40.329756  7412 net.cpp:84] Creating Layer conv19
I0428 17:38:40.330755  7412 net.cpp:406] conv19 <- conv18
I0428 17:38:40.330755  7412 net.cpp:380] conv19 -> conv19
I0428 17:38:40.330755  7412 net.cpp:122] Setting up conv19
I0428 17:38:40.330755  7412 net.cpp:129] Top shape: 100 32 4 4 (51200)
I0428 17:38:40.330755  7412 net.cpp:137] Memory required for data: 184935600
I0428 17:38:40.330755  7412 layer_factory.hpp:77] Creating layer bn_conv19
I0428 17:38:40.330755  7412 net.cpp:84] Creating Layer bn_conv19
I0428 17:38:40.330755  7412 net.cpp:406] bn_conv19 <- conv19
I0428 17:38:40.331755  7412 net.cpp:367] bn_conv19 -> conv19 (in-place)
I0428 17:38:40.331755  7412 net.cpp:122] Setting up bn_conv19
I0428 17:38:40.331755  7412 net.cpp:129] Top shape: 100 32 4 4 (51200)
I0428 17:38:40.331755  7412 net.cpp:137] Memory required for data: 185140400
I0428 17:38:40.331755  7412 layer_factory.hpp:77] Creating layer scale_conv19
I0428 17:38:40.331755  7412 net.cpp:84] Creating Layer scale_conv19
I0428 17:38:40.331755  7412 net.cpp:406] scale_conv19 <- conv19
I0428 17:38:40.331755  7412 net.cpp:367] scale_conv19 -> conv19 (in-place)
I0428 17:38:40.331755  7412 layer_factory.hpp:77] Creating layer scale_conv19
I0428 17:38:40.332756  7412 net.cpp:122] Setting up scale_conv19
I0428 17:38:40.332756  7412 net.cpp:129] Top shape: 100 32 4 4 (51200)
I0428 17:38:40.332756  7412 net.cpp:137] Memory required for data: 185345200
I0428 17:38:40.332756  7412 layer_factory.hpp:77] Creating layer relu19
I0428 17:38:40.332756  7412 net.cpp:84] Creating Layer relu19
I0428 17:38:40.332756  7412 net.cpp:406] relu19 <- conv19
I0428 17:38:40.332756  7412 net.cpp:367] relu19 -> conv19 (in-place)
I0428 17:38:40.332756  7412 net.cpp:122] Setting up relu19
I0428 17:38:40.332756  7412 net.cpp:129] Top shape: 100 32 4 4 (51200)
I0428 17:38:40.332756  7412 net.cpp:137] Memory required for data: 185550000
I0428 17:38:40.333755  7412 layer_factory.hpp:77] Creating layer conv20
I0428 17:38:40.333755  7412 net.cpp:84] Creating Layer conv20
I0428 17:38:40.333755  7412 net.cpp:406] conv20 <- conv19
I0428 17:38:40.333755  7412 net.cpp:380] conv20 -> conv20
I0428 17:38:40.334755  7412 net.cpp:122] Setting up conv20
I0428 17:38:40.334755  7412 net.cpp:129] Top shape: 100 32 4 4 (51200)
I0428 17:38:40.334755  7412 net.cpp:137] Memory required for data: 185754800
I0428 17:38:40.334755  7412 layer_factory.hpp:77] Creating layer bn_conv20
I0428 17:38:40.334755  7412 net.cpp:84] Creating Layer bn_conv20
I0428 17:38:40.334755  7412 net.cpp:406] bn_conv20 <- conv20
I0428 17:38:40.334755  7412 net.cpp:367] bn_conv20 -> conv20 (in-place)
I0428 17:38:40.334755  7412 net.cpp:122] Setting up bn_conv20
I0428 17:38:40.334755  7412 net.cpp:129] Top shape: 100 32 4 4 (51200)
I0428 17:38:40.335755  7412 net.cpp:137] Memory required for data: 185959600
I0428 17:38:40.335755  7412 layer_factory.hpp:77] Creating layer scale_conv20
I0428 17:38:40.335755  7412 net.cpp:84] Creating Layer scale_conv20
I0428 17:38:40.335755  7412 net.cpp:406] scale_conv20 <- conv20
I0428 17:38:40.335755  7412 net.cpp:367] scale_conv20 -> conv20 (in-place)
I0428 17:38:40.335755  7412 layer_factory.hpp:77] Creating layer scale_conv20
I0428 17:38:40.335755  7412 net.cpp:122] Setting up scale_conv20
I0428 17:38:40.335755  7412 net.cpp:129] Top shape: 100 32 4 4 (51200)
I0428 17:38:40.335755  7412 net.cpp:137] Memory required for data: 186164400
I0428 17:38:40.335755  7412 layer_factory.hpp:77] Creating layer relu20
I0428 17:38:40.336756  7412 net.cpp:84] Creating Layer relu20
I0428 17:38:40.336756  7412 net.cpp:406] relu20 <- conv20
I0428 17:38:40.336756  7412 net.cpp:367] relu20 -> conv20 (in-place)
I0428 17:38:40.336756  7412 net.cpp:122] Setting up relu20
I0428 17:38:40.336756  7412 net.cpp:129] Top shape: 100 32 4 4 (51200)
I0428 17:38:40.336756  7412 net.cpp:137] Memory required for data: 186369200
I0428 17:38:40.336756  7412 layer_factory.hpp:77] Creating layer pool21
I0428 17:38:40.336756  7412 net.cpp:84] Creating Layer pool21
I0428 17:38:40.336756  7412 net.cpp:406] pool21 <- conv20
I0428 17:38:40.336756  7412 net.cpp:380] pool21 -> pool21
I0428 17:38:40.336756  7412 net.cpp:122] Setting up pool21
I0428 17:38:40.337756  7412 net.cpp:129] Top shape: 100 32 1 1 (3200)
I0428 17:38:40.337756  7412 net.cpp:137] Memory required for data: 186382000
I0428 17:38:40.337756  7412 layer_factory.hpp:77] Creating layer fc22
I0428 17:38:40.337756  7412 net.cpp:84] Creating Layer fc22
I0428 17:38:40.337756  7412 net.cpp:406] fc22 <- pool21
I0428 17:38:40.337756  7412 net.cpp:380] fc22 -> fc22
I0428 17:38:40.337756  7412 net.cpp:122] Setting up fc22
I0428 17:38:40.337756  7412 net.cpp:129] Top shape: 100 10 (1000)
I0428 17:38:40.337756  7412 net.cpp:137] Memory required for data: 186386000
I0428 17:38:40.338757  7412 layer_factory.hpp:77] Creating layer fc22_fc22_0_split
I0428 17:38:40.338757  7412 net.cpp:84] Creating Layer fc22_fc22_0_split
I0428 17:38:40.338757  7412 net.cpp:406] fc22_fc22_0_split <- fc22
I0428 17:38:40.338757  7412 net.cpp:380] fc22_fc22_0_split -> fc22_fc22_0_split_0
I0428 17:38:40.338757  7412 net.cpp:380] fc22_fc22_0_split -> fc22_fc22_0_split_1
I0428 17:38:40.338757  7412 net.cpp:122] Setting up fc22_fc22_0_split
I0428 17:38:40.338757  7412 net.cpp:129] Top shape: 100 10 (1000)
I0428 17:38:40.338757  7412 net.cpp:129] Top shape: 100 10 (1000)
I0428 17:38:40.339756  7412 net.cpp:137] Memory required for data: 186394000
I0428 17:38:40.339756  7412 layer_factory.hpp:77] Creating layer accuracy
I0428 17:38:40.339756  7412 net.cpp:84] Creating Layer accuracy
I0428 17:38:40.339756  7412 net.cpp:406] accuracy <- fc22_fc22_0_split_0
I0428 17:38:40.339756  7412 net.cpp:406] accuracy <- label_data_1_split_0
I0428 17:38:40.339756  7412 net.cpp:380] accuracy -> accuracy
…
